…
snapshot_prefix: "vgg16_rpn_step3"
average_loss: 100
I0211 06:31:30.628615 23479 solver.cpp:66] Creating training net from train_net file: models/VGG16/rpn/train_step3.prototxt
I0211 06:31:30.629473 23479 net.cpp:42] Initializing net from parameters: 
name: "VGG_RPN"
state {
  phase: TRAIN
}
layer {
  name: "data"
  type: "Python"
  top: "data"
  top: "labels"
  top: "bbox_targets"
  top: "bbox_loss_weights"
  top: "batch_size"
  python_param {
    module: "roi_data_layer.layer"
    layer: "RoIDataLayer"
    param_str: "num_classes: 1\nRPN: True"
  }
}
layer {
  name: "conv1_1"
  type: "Convolution"
  bottom: "data"
  top: "conv1_1"
  param {
    lr_mult: 0
    decay_mult: 0
  }
  param {
    lr_mult: 0
    decay_mult: 0
  }
  convolution_param {
    num_output: 64
    pad: 1
    kernel_size: 3
  }
}
layer {
  name: "relu1_1"
  type: "ReLU"
  bottom: "conv1_1"
  top: "conv1_1"
}
layer {
  name: "conv1_2"
  type: "Convolution"
  bottom: "conv1_1"
  top: "conv1_2"
  param {
    lr_mult: 0
    decay_mult: 0
  }
  param {
    lr_mult: 0
    decay_mult: 0
  }
  convolution_param {
    num_output: 64
    pad: 1
    kernel_size: 3
  }
}
layer {
  name: "relu1_2"
  type: "ReLU"
  bottom: "conv1_2"
  top: "conv1_2"
}
layer {
  name: "pool1"
  type: "Pooling"
  bottom: "conv1_2"
  top: "pool1"
  pooling_param {
    pool: MAX
    kernel_size: 2
    stride: 2
  }
}
layer {
  name: "conv2_1"
  type: "Convolution"
  bottom: "pool1"
  top: "conv2_1"
  param {
    lr_mult: 0
    decay_mult: 0
  }
  param {
    lr_mult: 0
    decay_mult: 0
  }
  convolution_param {
    num_output: 128
    pad: 1
    kernel_size: 3
  }
}
layer {
  name: "relu2_1"
  type: "ReLU"
  bottom: "conv2_1"
  top: "conv2_1"
}
layer {
  name: "conv2_2"
  type: "Convolution"
  bottom: "conv2_1"
  top: "conv2_2"
  param {
    lr_mult: 0
    decay_mult: 0
  }
  param {
    lr_mult: 0
    decay_mult: 0
  }
  convolution_param {
    num_output: 128
    pad: 1
    kernel_size: 3
  }
}
layer {
  name: "relu2_2"
  type: "ReLU"
  bottom: "conv2_2"
  top: "conv2_2"
}
layer {
  name: "pool2"
  type: "Pooling"
  bottom: "conv2_2"
  top: "pool2"
  pooling_param {
    pool: MAX
    kernel_size: 2
    stride: 2
  }
}
layer {
  name: "conv3_1"
  type: "Convolution"
  bottom: "pool2"
  top: "conv3_1"
  param {
    lr_mult: 0
    decay_mult: 0
  }
  param {
    lr_mult: 0
    decay_mult: 0
  }
  convolution_param {
    num_output: 256
    pad: 1
    kernel_size: 3
  }
}
layer {
  name: "relu3_1"
  type: "ReLU"
  bottom: "conv3_1"
  top: "conv3_1"
}
layer {
  name: "conv3_2"
  type: "Convolution"
  bottom: "conv3_1"
  top: "conv3_2"
  param {
    lr_mult: 0
    decay_mult: 0
  }
  param {
    lr_mult: 0
    decay_mult: 0
  }
  convolution_param {
    num_output: 256
    pad: 1
    kernel_size: 3
  }
}
layer {
  name: "relu3_2"
  type: "ReLU"
  bottom: "conv3_2"
  top: "conv3_2"
}
layer {
  name: "conv3_3"
  type: "Convolution"
  bottom: "conv3_2"
  top: "conv3_3"
  param {
    lr_mult: 0
    decay_mult: 0
  }
  param {
    lr_mult: 0
    decay_mult: 0
  }
  convolution_param {
    num_output: 256
    pad: 1
    kernel_size: 3
  }
}
layer {
  name: "relu3_3"
  type: "ReLU"
  bottom: "conv3_3"
  top: "conv3_3"
}
layer {
  name: "pool3"
  type: "Pooling"
  bottom: "conv3_3"
  top: "pool3"
  pooling_param {
    pool: MAX
    kernel_size: 2
    stride: 2
  }
}
layer {
  name: "conv4_1"
  type: "Convolution"
  bottom: "pool3"
  top: "conv4_1"
  param {
    lr_mult: 0
    decay_mult: 0
  }
  param {
    lr_mult: 0
    decay_mult: 0
  }
  convolution_param {
    num_output: 512
    pad: 1
    kernel_size: 3
  }
}
layer {
  name: "relu4_1"
  type: "ReLU"
  bottom: "conv4_1"
  top: "conv4_1"
}
layer {
  name: "conv4_2"
  type: "Convolution"
  bottom: "conv4_1"
  top: "conv4_2"
  param {
    lr_mult: 0
    decay_mult: 0
  }
  param {
    lr_mult: 0
    decay_mult: 0
  }
  convolution_param {
    num_output: 512
    pad: 1
    kernel_size: 3
  }
}
layer {
  name: "relu4_2"
  type: "ReLU"
  bottom: "conv4_2"
  top: "conv4_2"
}
layer {
  name: "conv4_3"
  type: "Convolution"
  bottom: "conv4_2"
  top: "conv4_3"
  param {
    lr_mult: 0
    decay_mult: 0
  }
  param {
    lr_mult: 0
    decay_mult: 0
  }
  convolution_param {
    num_output: 512
    pad: 1
    kernel_size: 3
  }
}
layer {
  name: "relu4_3"
  type: "ReLU"
  bottom: "conv4_3"
  top: "conv4_3"
}
layer {
  name: "pool4"
  type: "Pooling"
  bottom: "conv4_3"
  top: "pool4"
  pooling_param {
    pool: MAX
    kernel_size: 2
    stride: 2
  }
}
layer {
  name: "conv5_1"
  type: "Convolution"
  bottom: "pool4"
  top: "conv5_1"
  param {
    lr_mult: 0
    decay_mult: 0
  }
  param {
    lr_mult: 0
    decay_mult: 0
  }
  convolution_param {
    num_output: 512
    pad: 1
    kernel_size: 3
  }
}
layer {
  name: "relu5_1"
  type: "ReLU"
  bottom: "conv5_1"
  top: "conv5_1"
}
layer {
  name: "conv5_2"
  type: "Convolution"
  bottom: "conv5_1"
  top: "conv5_2"
  param {
    lr_mult: 0
    decay_mult: 0
  }
  param {
    lr_mult: 0
    decay_mult: 0
  }
  convolution_param {
    num_output: 512
    pad: 1
    kernel_size: 3
  }
}
layer {
  name: "relu5_2"
  type: "ReLU"
  bottom: "conv5_2"
  top: "conv5_2"
}
layer {
  name: "conv5_3"
  type: "Convolution"
  bottom: "conv5_2"
  top: "conv5_3"
  param {
    lr_mult: 0
    decay_mult: 0
  }
  param {
    lr_mult: 0
    decay_mult: 0
  }
  convolution_param {
    num_output: 512
    pad: 1
    kernel_size: 3
  }
}
layer {
  name: "relu5_3"
  type: "ReLU"
  bottom: "conv5_3"
  top: "conv5_3"
}
layer {
  name: "conv_rpn_feature"
  type: "Convolution"
  bottom: "conv5_3"
  top: "conv_rpn_feature"
  param {
    lr_mult: 1
    decay_mult: 1
  }
  param {
    lr_mult: 2
    decay_mult: 0
  }
  convolution_param {
    num_output: 512
    pad: 1
    kernel_size: 3
    weight_filler {
      type: "gaussian"
      std: 0.01
    }
  }
}
layer {
  name: "relu_rpn_feature"
  type: "ReLU"
  bottom: "conv_rpn_feature"
  top: "conv_rpn_feature"
}
layer {
  name: "conv_rpn_score"
  type: "Convolution"
  bottom: "conv_rpn_feature"
  top: "conv_rpn_score"
  param {
    lr_mult: 1
    decay_mult: 1
  }
  param {
    lr_mult: 2
    decay_mult: 0
  }
  convolution_param {
    num_output: 18
    kernel_size: 1
    weight_filler {
      type: "gaussian"
      std: 0.01
    }
  }
}
layer {
  name: "bbox_pred_rpn"
  type: "Convolution"
  bottom: "conv_rpn_feature"
  top: "bbox_pred_rpn"
  param {
    lr_mult: 1
    decay_mult: 1
  }
  param {
    lr_mult: 2
    decay_mult: 0
  }
  convolution_param {
    num_output: 36
    kernel_size: 1
    weight_filler {
      type: "gaussian"
      std: 0.01
    }
  }
}
layer {
  name: "conv_rpn_score_reshape"
  type: "Reshape"
  bottom: "conv_rpn_score"
  top: "conv_rpn_score_reshape"
  reshape_param {
    shape {
      dim: 1
      dim: 9
      dim: 2
      dim: 5
      dim: 5
    }
  }
}
layer {
  name: "loss_cls"
  type: "SoftmaxWithLoss"
  bottom: "conv_rpn_score_reshape"
  bottom: "labels"
  top: "loss_cls"
  loss_weight: 1
  loss_param {
    ignore_label: -1
  }
  softmax_param {
    axis: 2
  }
}
layer {
  name: "loss_bbox"
  type: "SmoothL1Loss"
  bottom: "bbox_pred_rpn"
  bottom: "bbox_targets"
  bottom: "bbox_loss_weights"
  bottom: "batch_size"
  bottom: "labels"
  top: "loss_bbox"
  loss_weight: 10
}
I0211 06:31:30.629596 23479 layer_factory.hpp:74] Creating layer data
I0211 06:31:30.630357 23479 net.cpp:90] Creating Layer data
I0211 06:31:30.630367 23479 net.cpp:368] data -> data
I0211 06:31:30.630374 23479 net.cpp:368] data -> labels
I0211 06:31:30.630379 23479 net.cpp:368] data -> bbox_targets
I0211 06:31:30.630384 23479 net.cpp:368] data -> bbox_loss_weights
I0211 06:31:30.630388 23479 net.cpp:368] data -> batch_size
I0211 06:31:30.630393 23479 net.cpp:120] Setting up data
I0211 06:31:30.630852 23479 net.cpp:127] Top shape: 1 3 100 100 (30000)
I0211 06:31:30.630862 23479 net.cpp:127] Top shape: 1 9 7 7 (441)
I0211 06:31:30.630866 23479 net.cpp:127] Top shape: 1 36 7 7 (1764)
I0211 06:31:30.630869 23479 net.cpp:127] Top shape: 1 36 7 7 (1764)
I0211 06:31:30.630872 23479 net.cpp:127] Top shape: 1 (1)
I0211 06:31:30.630874 23479 layer_factory.hpp:74] Creating layer labels_data_1_split
I0211 06:31:30.630882 23479 net.cpp:90] Creating Layer labels_data_1_split
I0211 06:31:30.630885 23479 net.cpp:410] labels_data_1_split <- labels
I0211 06:31:30.630889 23479 net.cpp:368] labels_data_1_split -> labels_data_1_split_0
I0211 06:31:30.630894 23479 net.cpp:368] labels_data_1_split -> labels_data_1_split_1
I0211 06:31:30.630898 23479 net.cpp:120] Setting up labels_data_1_split
I0211 06:31:30.630903 23479 net.cpp:127] Top shape: 1 9 7 7 (441)
I0211 06:31:30.630905 23479 net.cpp:127] Top shape: 1 9 7 7 (441)
I0211 06:31:30.630908 23479 layer_factory.hpp:74] Creating layer conv1_1
I0211 06:31:30.630915 23479 net.cpp:90] Creating Layer conv1_1
I0211 06:31:30.630918 23479 net.cpp:410] conv1_1 <- data
I0211 06:31:30.630923 23479 net.cpp:368] conv1_1 -> conv1_1
I0211 06:31:30.630926 23479 net.cpp:120] Setting up conv1_1
I0211 06:31:30.664890 23479 net.cpp:127] Top shape: 1 64 100 100 (640000)
I0211 06:31:30.664921 23479 layer_factory.hpp:74] Creating layer relu1_1
I0211 06:31:30.664942 23479 net.cpp:90] Creating Layer relu1_1
I0211 06:31:30.664945 23479 net.cpp:410] relu1_1 <- conv1_1
I0211 06:31:30.664962 23479 net.cpp:357] relu1_1 -> conv1_1 (in-place)
I0211 06:31:30.664968 23479 net.cpp:120] Setting up relu1_1
I0211 06:31:30.665011 23479 net.cpp:127] Top shape: 1 64 100 100 (640000)
I0211 06:31:30.665024 23479 layer_factory.hpp:74] Creating layer conv1_2
I0211 06:31:30.665030 23479 net.cpp:90] Creating Layer conv1_2
I0211 06:31:30.665033 23479 net.cpp:410] conv1_2 <- conv1_1
I0211 06:31:30.665037 23479 net.cpp:368] conv1_2 -> conv1_2
I0211 06:31:30.665053 23479 net.cpp:120] Setting up conv1_2
I0211 06:31:30.665391 23479 net.cpp:127] Top shape: 1 64 100 100 (640000)
I0211 06:31:30.665401 23479 layer_factory.hpp:74] Creating layer relu1_2
I0211 06:31:30.665416 23479 net.cpp:90] Creating Layer relu1_2
I0211 06:31:30.665419 23479 net.cpp:410] relu1_2 <- conv1_2
I0211 06:31:30.665433 23479 net.cpp:357] relu1_2 -> conv1_2 (in-place)
I0211 06:31:30.665437 23479 net.cpp:120] Setting up relu1_2
I0211 06:31:30.665585 23479 net.cpp:127] Top shape: 1 64 100 100 (640000)
I0211 06:31:30.665592 23479 layer_factory.hpp:74] Creating layer pool1
I0211 06:31:30.665599 23479 net.cpp:90] Creating Layer pool1
I0211 06:31:30.665613 23479 net.cpp:410] pool1 <- conv1_2
I0211 06:31:30.665616 23479 net.cpp:368] pool1 -> pool1
I0211 06:31:30.665621 23479 net.cpp:120] Setting up pool1
I0211 06:31:30.665684 23479 net.cpp:127] Top shape: 1 64 50 50 (160000)
I0211 06:31:30.665688 23479 layer_factory.hpp:74] Creating layer conv2_1
I0211 06:31:30.665693 23479 net.cpp:90] Creating Layer conv2_1
I0211 06:31:30.665695 23479 net.cpp:410] conv2_1 <- pool1
I0211 06:31:30.665699 23479 net.cpp:368] conv2_1 -> conv2_1
I0211 06:31:30.665704 23479 net.cpp:120] Setting up conv2_1
I0211 06:31:30.666013 23479 net.cpp:127] Top shape: 1 128 50 50 (320000)
I0211 06:31:30.666023 23479 layer_factory.hpp:74] Creating layer relu2_1
I0211 06:31:30.666039 23479 net.cpp:90] Creating Layer relu2_1
I0211 06:31:30.666043 23479 net.cpp:410] relu2_1 <- conv2_1
I0211 06:31:30.666046 23479 net.cpp:357] relu2_1 -> conv2_1 (in-place)
I0211 06:31:30.666051 23479 net.cpp:120] Setting up relu2_1
I0211 06:31:30.666115 23479 net.cpp:127] Top shape: 1 128 50 50 (320000)
I0211 06:31:30.666118 23479 layer_factory.hpp:74] Creating layer conv2_2
I0211 06:31:30.666122 23479 net.cpp:90] Creating Layer conv2_2
I0211 06:31:30.666126 23479 net.cpp:410] conv2_2 <- conv2_1
I0211 06:31:30.666131 23479 net.cpp:368] conv2_2 -> conv2_2
I0211 06:31:30.666134 23479 net.cpp:120] Setting up conv2_2
I0211 06:31:30.666529 23479 net.cpp:127] Top shape: 1 128 50 50 (320000)
I0211 06:31:30.666538 23479 layer_factory.hpp:74] Creating layer relu2_2
I0211 06:31:30.666543 23479 net.cpp:90] Creating Layer relu2_2
I0211 06:31:30.666546 23479 net.cpp:410] relu2_2 <- conv2_2
I0211 06:31:30.666550 23479 net.cpp:357] relu2_2 -> conv2_2 (in-place)
I0211 06:31:30.666553 23479 net.cpp:120] Setting up relu2_2
I0211 06:31:30.666594 23479 net.cpp:127] Top shape: 1 128 50 50 (320000)
I0211 06:31:30.666597 23479 layer_factory.hpp:74] Creating layer pool2
I0211 06:31:30.666602 23479 net.cpp:90] Creating Layer pool2
I0211 06:31:30.666604 23479 net.cpp:410] pool2 <- conv2_2
I0211 06:31:30.666609 23479 net.cpp:368] pool2 -> pool2
I0211 06:31:30.666613 23479 net.cpp:120] Setting up pool2
I0211 06:31:30.666733 23479 net.cpp:127] Top shape: 1 128 25 25 (80000)
I0211 06:31:30.666739 23479 layer_factory.hpp:74] Creating layer conv3_1
I0211 06:31:30.666745 23479 net.cpp:90] Creating Layer conv3_1
I0211 06:31:30.666749 23479 net.cpp:410] conv3_1 <- pool2
I0211 06:31:30.666754 23479 net.cpp:368] conv3_1 -> conv3_1
I0211 06:31:30.666757 23479 net.cpp:120] Setting up conv3_1
I0211 06:31:30.667312 23479 net.cpp:127] Top shape: 1 256 25 25 (160000)
I0211 06:31:30.667322 23479 layer_factory.hpp:74] Creating layer relu3_1
I0211 06:31:30.667328 23479 net.cpp:90] Creating Layer relu3_1
I0211 06:31:30.667331 23479 net.cpp:410] relu3_1 <- conv3_1
I0211 06:31:30.667335 23479 net.cpp:357] relu3_1 -> conv3_1 (in-place)
I0211 06:31:30.667338 23479 net.cpp:120] Setting up relu3_1
I0211 06:31:30.667381 23479 net.cpp:127] Top shape: 1 256 25 25 (160000)
I0211 06:31:30.667384 23479 layer_factory.hpp:74] Creating layer conv3_2
I0211 06:31:30.667389 23479 net.cpp:90] Creating Layer conv3_2
I0211 06:31:30.667392 23479 net.cpp:410] conv3_2 <- conv3_1
I0211 06:31:30.667399 23479 net.cpp:368] conv3_2 -> conv3_2
I0211 06:31:30.667403 23479 net.cpp:120] Setting up conv3_2
I0211 06:31:30.668046 23479 net.cpp:127] Top shape: 1 256 25 25 (160000)
I0211 06:31:30.668056 23479 layer_factory.hpp:74] Creating layer relu3_2
I0211 06:31:30.668061 23479 net.cpp:90] Creating Layer relu3_2
I0211 06:31:30.668063 23479 net.cpp:410] relu3_2 <- conv3_2
I0211 06:31:30.668067 23479 net.cpp:357] relu3_2 -> conv3_2 (in-place)
I0211 06:31:30.668071 23479 net.cpp:120] Setting up relu3_2
I0211 06:31:30.668112 23479 net.cpp:127] Top shape: 1 256 25 25 (160000)
I0211 06:31:30.668117 23479 layer_factory.hpp:74] Creating layer conv3_3
I0211 06:31:30.668123 23479 net.cpp:90] Creating Layer conv3_3
I0211 06:31:30.668125 23479 net.cpp:410] conv3_3 <- conv3_2
I0211 06:31:30.668129 23479 net.cpp:368] conv3_3 -> conv3_3
I0211 06:31:30.668134 23479 net.cpp:120] Setting up conv3_3
I0211 06:31:30.669009 23479 net.cpp:127] Top shape: 1 256 25 25 (160000)
I0211 06:31:30.669019 23479 layer_factory.hpp:74] Creating layer relu3_3
I0211 06:31:30.669023 23479 net.cpp:90] Creating Layer relu3_3
I0211 06:31:30.669026 23479 net.cpp:410] relu3_3 <- conv3_3
I0211 06:31:30.669030 23479 net.cpp:357] relu3_3 -> conv3_3 (in-place)
I0211 06:31:30.669034 23479 net.cpp:120] Setting up relu3_3
I0211 06:31:30.669075 23479 net.cpp:127] Top shape: 1 256 25 25 (160000)
I0211 06:31:30.669080 23479 layer_factory.hpp:74] Creating layer pool3
I0211 06:31:30.669085 23479 net.cpp:90] Creating Layer pool3
I0211 06:31:30.669086 23479 net.cpp:410] pool3 <- conv3_3
I0211 06:31:30.669090 23479 net.cpp:368] pool3 -> pool3
I0211 06:31:30.669095 23479 net.cpp:120] Setting up pool3
I0211 06:31:30.669211 23479 net.cpp:127] Top shape: 1 256 13 13 (43264)
I0211 06:31:30.669217 23479 layer_factory.hpp:74] Creating layer conv4_1
I0211 06:31:30.669224 23479 net.cpp:90] Creating Layer conv4_1
I0211 06:31:30.669225 23479 net.cpp:410] conv4_1 <- pool3
I0211 06:31:30.669229 23479 net.cpp:368] conv4_1 -> conv4_1
I0211 06:31:30.669234 23479 net.cpp:120] Setting up conv4_1
I0211 06:31:30.670570 23479 net.cpp:127] Top shape: 1 512 13 13 (86528)
I0211 06:31:30.670583 23479 layer_factory.hpp:74] Creating layer relu4_1
I0211 06:31:30.670588 23479 net.cpp:90] Creating Layer relu4_1
I0211 06:31:30.670591 23479 net.cpp:410] relu4_1 <- conv4_1
I0211 06:31:30.670596 23479 net.cpp:357] relu4_1 -> conv4_1 (in-place)
I0211 06:31:30.670600 23479 net.cpp:120] Setting up relu4_1
I0211 06:31:30.670642 23479 net.cpp:127] Top shape: 1 512 13 13 (86528)
I0211 06:31:30.670645 23479 layer_factory.hpp:74] Creating layer conv4_2
I0211 06:31:30.670650 23479 net.cpp:90] Creating Layer conv4_2
I0211 06:31:30.670653 23479 net.cpp:410] conv4_2 <- conv4_1
I0211 06:31:30.670657 23479 net.cpp:368] conv4_2 -> conv4_2
I0211 06:31:30.670661 23479 net.cpp:120] Setting up conv4_2
I0211 06:31:30.672761 23479 net.cpp:127] Top shape: 1 512 13 13 (86528)
I0211 06:31:30.672787 23479 layer_factory.hpp:74] Creating layer relu4_2
I0211 06:31:30.672796 23479 net.cpp:90] Creating Layer relu4_2
I0211 06:31:30.672801 23479 net.cpp:410] relu4_2 <- conv4_2
I0211 06:31:30.672806 23479 net.cpp:357] relu4_2 -> conv4_2 (in-place)
I0211 06:31:30.672811 23479 net.cpp:120] Setting up relu4_2
I0211 06:31:30.672855 23479 net.cpp:127] Top shape: 1 512 13 13 (86528)
I0211 06:31:30.672858 23479 layer_factory.hpp:74] Creating layer conv4_3
I0211 06:31:30.672879 23479 net.cpp:90] Creating Layer conv4_3
I0211 06:31:30.672883 23479 net.cpp:410] conv4_3 <- conv4_2
I0211 06:31:30.672886 23479 net.cpp:368] conv4_3 -> conv4_3
I0211 06:31:30.672891 23479 net.cpp:120] Setting up conv4_3
I0211 06:31:30.675225 23479 net.cpp:127] Top shape: 1 512 13 13 (86528)
I0211 06:31:30.675249 23479 layer_factory.hpp:74] Creating layer relu4_3
I0211 06:31:30.675258 23479 net.cpp:90] Creating Layer relu4_3
I0211 06:31:30.675263 23479 net.cpp:410] relu4_3 <- conv4_3
I0211 06:31:30.675269 23479 net.cpp:357] relu4_3 -> conv4_3 (in-place)
I0211 06:31:30.675274 23479 net.cpp:120] Setting up relu4_3
I0211 06:31:30.675391 23479 net.cpp:127] Top shape: 1 512 13 13 (86528)
I0211 06:31:30.675397 23479 layer_factory.hpp:74] Creating layer pool4
I0211 06:31:30.675405 23479 net.cpp:90] Creating Layer pool4
I0211 06:31:30.675406 23479 net.cpp:410] pool4 <- conv4_3
I0211 06:31:30.675410 23479 net.cpp:368] pool4 -> pool4
I0211 06:31:30.675415 23479 net.cpp:120] Setting up pool4
I0211 06:31:30.675459 23479 net.cpp:127] Top shape: 1 512 7 7 (25088)
I0211 06:31:30.675463 23479 layer_factory.hpp:74] Creating layer conv5_1
I0211 06:31:30.675468 23479 net.cpp:90] Creating Layer conv5_1
I0211 06:31:30.675470 23479 net.cpp:410] conv5_1 <- pool4
I0211 06:31:30.675475 23479 net.cpp:368] conv5_1 -> conv5_1
I0211 06:31:30.675480 23479 net.cpp:120] Setting up conv5_1
I0211 06:31:30.677779 23479 net.cpp:127] Top shape: 1 512 7 7 (25088)
I0211 06:31:30.677801 23479 layer_factory.hpp:74] Creating layer relu5_1
I0211 06:31:30.677811 23479 net.cpp:90] Creating Layer relu5_1
I0211 06:31:30.677815 23479 net.cpp:410] relu5_1 <- conv5_1
I0211 06:31:30.677820 23479 net.cpp:357] relu5_1 -> conv5_1 (in-place)
I0211 06:31:30.677826 23479 net.cpp:120] Setting up relu5_1
I0211 06:31:30.677870 23479 net.cpp:127] Top shape: 1 512 7 7 (25088)
I0211 06:31:30.677872 23479 layer_factory.hpp:74] Creating layer conv5_2
I0211 06:31:30.677878 23479 net.cpp:90] Creating Layer conv5_2
I0211 06:31:30.677881 23479 net.cpp:410] conv5_2 <- conv5_1
I0211 06:31:30.677886 23479 net.cpp:368] conv5_2 -> conv5_2
I0211 06:31:30.677891 23479 net.cpp:120] Setting up conv5_2
I0211 06:31:30.680238 23479 net.cpp:127] Top shape: 1 512 7 7 (25088)
I0211 06:31:30.680263 23479 layer_factory.hpp:74] Creating layer relu5_2
I0211 06:31:30.680271 23479 net.cpp:90] Creating Layer relu5_2
I0211 06:31:30.680276 23479 net.cpp:410] relu5_2 <- conv5_2
I0211 06:31:30.680282 23479 net.cpp:357] relu5_2 -> conv5_2 (in-place)
I0211 06:31:30.680287 23479 net.cpp:120] Setting up relu5_2
I0211 06:31:30.680330 23479 net.cpp:127] Top shape: 1 512 7 7 (25088)
I0211 06:31:30.680332 23479 layer_factory.hpp:74] Creating layer conv5_3
I0211 06:31:30.680341 23479 net.cpp:90] Creating Layer conv5_3
I0211 06:31:30.680343 23479 net.cpp:410] conv5_3 <- conv5_2
I0211 06:31:30.680347 23479 net.cpp:368] conv5_3 -> conv5_3
I0211 06:31:30.680351 23479 net.cpp:120] Setting up conv5_3
I0211 06:31:30.682441 23479 net.cpp:127] Top shape: 1 512 7 7 (25088)
I0211 06:31:30.682467 23479 layer_factory.hpp:74] Creating layer relu5_3
I0211 06:31:30.682476 23479 net.cpp:90] Creating Layer relu5_3
I0211 06:31:30.682481 23479 net.cpp:410] relu5_3 <- conv5_3
I0211 06:31:30.682487 23479 net.cpp:357] relu5_3 -> conv5_3 (in-place)
I0211 06:31:30.682492 23479 net.cpp:120] Setting up relu5_3
I0211 06:31:30.682612 23479 net.cpp:127] Top shape: 1 512 7 7 (25088)
I0211 06:31:30.682620 23479 layer_factory.hpp:74] Creating layer conv_rpn_feature
I0211 06:31:30.682631 23479 net.cpp:90] Creating Layer conv_rpn_feature
I0211 06:31:30.682632 23479 net.cpp:410] conv_rpn_feature <- conv5_3
I0211 06:31:30.682637 23479 net.cpp:368] conv_rpn_feature -> conv_rpn_feature
I0211 06:31:30.682642 23479 net.cpp:120] Setting up conv_rpn_feature
I0211 06:31:30.735234 23479 net.cpp:127] Top shape: 1 512 7 7 (25088)
I0211 06:31:30.735265 23479 layer_factory.hpp:74] Creating layer relu_rpn_feature
I0211 06:31:30.735275 23479 net.cpp:90] Creating Layer relu_rpn_feature
I0211 06:31:30.735280 23479 net.cpp:410] relu_rpn_feature <- conv_rpn_feature
I0211 06:31:30.735285 23479 net.cpp:357] relu_rpn_feature -> conv_rpn_feature (in-place)
I0211 06:31:30.735291 23479 net.cpp:120] Setting up relu_rpn_feature
I0211 06:31:30.735333 23479 net.cpp:127] Top shape: 1 512 7 7 (25088)
I0211 06:31:30.735337 23479 layer_factory.hpp:74] Creating layer conv_rpn_feature_relu_rpn_feature_0_split
I0211 06:31:30.735350 23479 net.cpp:90] Creating Layer conv_rpn_feature_relu_rpn_feature_0_split
I0211 06:31:30.735352 23479 net.cpp:410] conv_rpn_feature_relu_rpn_feature_0_split <- conv_rpn_feature
I0211 06:31:30.735357 23479 net.cpp:368] conv_rpn_feature_relu_rpn_feature_0_split -> conv_rpn_feature_relu_rpn_feature_0_split_0
I0211 06:31:30.735373 23479 net.cpp:368] conv_rpn_feature_relu_rpn_feature_0_split -> conv_rpn_feature_relu_rpn_feature_0_split_1
I0211 06:31:30.735376 23479 net.cpp:120] Setting up conv_rpn_feature_relu_rpn_feature_0_split
I0211 06:31:30.735381 23479 net.cpp:127] Top shape: 1 512 7 7 (25088)
I0211 06:31:30.735384 23479 net.cpp:127] Top shape: 1 512 7 7 (25088)
I0211 06:31:30.735388 23479 layer_factory.hpp:74] Creating layer conv_rpn_score
I0211 06:31:30.735394 23479 net.cpp:90] Creating Layer conv_rpn_score
I0211 06:31:30.735395 23479 net.cpp:410] conv_rpn_score <- conv_rpn_feature_relu_rpn_feature_0_split_0
I0211 06:31:30.735399 23479 net.cpp:368] conv_rpn_score -> conv_rpn_score
I0211 06:31:30.735404 23479 net.cpp:120] Setting up conv_rpn_score
I0211 06:31:30.735906 23479 net.cpp:127] Top shape: 1 18 7 7 (882)
I0211 06:31:30.735915 23479 layer_factory.hpp:74] Creating layer bbox_pred_rpn
I0211 06:31:30.735923 23479 net.cpp:90] Creating Layer bbox_pred_rpn
I0211 06:31:30.735924 23479 net.cpp:410] bbox_pred_rpn <- conv_rpn_feature_relu_rpn_feature_0_split_1
I0211 06:31:30.735929 23479 net.cpp:368] bbox_pred_rpn -> bbox_pred_rpn
I0211 06:31:30.735934 23479 net.cpp:120] Setting up bbox_pred_rpn
I0211 06:31:30.736593 23479 net.cpp:127] Top shape: 1 36 7 7 (1764)
I0211 06:31:30.736601 23479 layer_factory.hpp:74] Creating layer conv_rpn_score_reshape
I0211 06:31:30.736619 23479 net.cpp:90] Creating Layer conv_rpn_score_reshape
I0211 06:31:30.736623 23479 net.cpp:410] conv_rpn_score_reshape <- conv_rpn_score
I0211 06:31:30.736626 23479 net.cpp:368] conv_rpn_score_reshape -> conv_rpn_score_reshape
I0211 06:31:30.736631 23479 net.cpp:120] Setting up conv_rpn_score_reshape
I0211 06:31:30.736641 23479 net.cpp:127] Top shape: 1 9 2 7 7 (882)
I0211 06:31:30.736644 23479 layer_factory.hpp:74] Creating layer loss_cls
I0211 06:31:30.736649 23479 net.cpp:90] Creating Layer loss_cls
I0211 06:31:30.736650 23479 net.cpp:410] loss_cls <- conv_rpn_score_reshape
I0211 06:31:30.736654 23479 net.cpp:410] loss_cls <- labels_data_1_split_0
I0211 06:31:30.736667 23479 net.cpp:368] loss_cls -> loss_cls
I0211 06:31:30.736675 23479 net.cpp:120] Setting up loss_cls
…
