…
snapshot_prefix: "vgg16_fast_rcnn_step2"
average_loss: 100
I0210 12:42:18.210608 10618 solver.cpp:66] Creating training net from train_net file: models/VGG16/train.prototxt
I0210 12:42:18.227694 10618 net.cpp:42] Initializing net from parameters: 
name: "VGG_ILSVRC_16_layers"
state {
  phase: TRAIN
}
layer {
  name: "data"
  type: "Python"
  top: "data"
  top: "rois"
  top: "labels"
  top: "bbox_targets"
  top: "bbox_loss_weights"
  python_param {
    module: "roi_data_layer.layer"
    layer: "RoIDataLayer"
    param_str: "\'num_classes\': 21"
  }
}
layer {
  name: "conv1_1"
  type: "Convolution"
  bottom: "data"
  top: "conv1_1"
  param {
    lr_mult: 0
    decay_mult: 0
  }
  param {
    lr_mult: 0
    decay_mult: 0
  }
  convolution_param {
    num_output: 64
    pad: 1
    kernel_size: 3
  }
}
layer {
  name: "relu1_1"
  type: "ReLU"
  bottom: "conv1_1"
  top: "conv1_1"
}
layer {
  name: "conv1_2"
  type: "Convolution"
  bottom: "conv1_1"
  top: "conv1_2"
  param {
    lr_mult: 0
    decay_mult: 0
  }
  param {
    lr_mult: 0
    decay_mult: 0
  }
  convolution_param {
    num_output: 64
    pad: 1
    kernel_size: 3
  }
}
layer {
  name: "relu1_2"
  type: "ReLU"
  bottom: "conv1_2"
  top: "conv1_2"
}
layer {
  name: "pool1"
  type: "Pooling"
  bottom: "conv1_2"
  top: "pool1"
  pooling_param {
    pool: MAX
    kernel_size: 2
    stride: 2
  }
}
layer {
  name: "conv2_1"
  type: "Convolution"
  bottom: "pool1"
  top: "conv2_1"
  param {
    lr_mult: 0
    decay_mult: 0
  }
  param {
    lr_mult: 0
    decay_mult: 0
  }
  convolution_param {
    num_output: 128
    pad: 1
    kernel_size: 3
  }
}
layer {
  name: "relu2_1"
  type: "ReLU"
  bottom: "conv2_1"
  top: "conv2_1"
}
layer {
  name: "conv2_2"
  type: "Convolution"
  bottom: "conv2_1"
  top: "conv2_2"
  param {
    lr_mult: 0
    decay_mult: 0
  }
  param {
    lr_mult: 0
    decay_mult: 0
  }
  convolution_param {
    num_output: 128
    pad: 1
    kernel_size: 3
  }
}
layer {
  name: "relu2_2"
  type: "ReLU"
  bottom: "conv2_2"
  top: "conv2_2"
}
layer {
  name: "pool2"
  type: "Pooling"
  bottom: "conv2_2"
  top: "pool2"
  pooling_param {
    pool: MAX
    kernel_size: 2
    stride: 2
  }
}
layer {
  name: "conv3_1"
  type: "Convolution"
  bottom: "pool2"
  top: "conv3_1"
  param {
    lr_mult: 1
    decay_mult: 1
  }
  param {
    lr_mult: 2
    decay_mult: 0
  }
  convolution_param {
    num_output: 256
    pad: 1
    kernel_size: 3
  }
}
layer {
  name: "relu3_1"
  type: "ReLU"
  bottom: "conv3_1"
  top: "conv3_1"
}
layer {
  name: "conv3_2"
  type: "Convolution"
  bottom: "conv3_1"
  top: "conv3_2"
  param {
    lr_mult: 1
    decay_mult: 1
  }
  param {
    lr_mult: 2
    decay_mult: 0
  }
  convolution_param {
    num_output: 256
    pad: 1
    kernel_size: 3
  }
}
layer {
  name: "relu3_2"
  type: "ReLU"
  bottom: "conv3_2"
  top: "conv3_2"
}
layer {
  name: "conv3_3"
  type: "Convolution"
  bottom: "conv3_2"
  top: "conv3_3"
  param {
    lr_mult: 1
    decay_mult: 1
  }
  param {
    lr_mult: 2
    decay_mult: 0
  }
  convolution_param {
    num_output: 256
    pad: 1
    kernel_size: 3
  }
}
layer {
  name: "relu3_3"
  type: "ReLU"
  bottom: "conv3_3"
  top: "conv3_3"
}
layer {
  name: "pool3"
  type: "Pooling"
  bottom: "conv3_3"
  top: "pool3"
  pooling_param {
    pool: MAX
    kernel_size: 2
    stride: 2
  }
}
layer {
  name: "conv4_1"
  type: "Convolution"
  bottom: "pool3"
  top: "conv4_1"
  param {
    lr_mult: 1
    decay_mult: 1
  }
  param {
    lr_mult: 2
    decay_mult: 0
  }
  convolution_param {
    num_output: 512
    pad: 1
    kernel_size: 3
  }
}
layer {
  name: "relu4_1"
  type: "ReLU"
  bottom: "conv4_1"
  top: "conv4_1"
}
layer {
  name: "conv4_2"
  type: "Convolution"
  bottom: "conv4_1"
  top: "conv4_2"
  param {
    lr_mult: 1
    decay_mult: 1
  }
  param {
    lr_mult: 2
    decay_mult: 0
  }
  convolution_param {
    num_output: 512
    pad: 1
    kernel_size: 3
  }
}
layer {
  name: "relu4_2"
  type: "ReLU"
  bottom: "conv4_2"
  top: "conv4_2"
}
layer {
  name: "conv4_3"
  type: "Convolution"
  bottom: "conv4_2"
  top: "conv4_3"
  param {
    lr_mult: 1
    decay_mult: 1
  }
  param {
    lr_mult: 2
    decay_mult: 0
  }
  convolution_param {
    num_output: 512
    pad: 1
    kernel_size: 3
  }
}
layer {
  name: "relu4_3"
  type: "ReLU"
  bottom: "conv4_3"
  top: "conv4_3"
}
layer {
  name: "pool4"
  type: "Pooling"
  bottom: "conv4_3"
  top: "pool4"
  pooling_param {
    pool: MAX
    kernel_size: 2
    stride: 2
  }
}
layer {
  name: "conv5_1"
  type: "Convolution"
  bottom: "pool4"
  top: "conv5_1"
  param {
    lr_mult: 1
    decay_mult: 1
  }
  param {
    lr_mult: 2
    decay_mult: 0
  }
  convolution_param {
    num_output: 512
    pad: 1
    kernel_size: 3
  }
}
layer {
  name: "relu5_1"
  type: "ReLU"
  bottom: "conv5_1"
  top: "conv5_1"
}
layer {
  name: "conv5_2"
  type: "Convolution"
  bottom: "conv5_1"
  top: "conv5_2"
  param {
    lr_mult: 1
    decay_mult: 1
  }
  param {
    lr_mult: 2
    decay_mult: 0
  }
  convolution_param {
    num_output: 512
    pad: 1
    kernel_size: 3
  }
}
layer {
  name: "relu5_2"
  type: "ReLU"
  bottom: "conv5_2"
  top: "conv5_2"
}
layer {
  name: "conv5_3"
  type: "Convolution"
  bottom: "conv5_2"
  top: "conv5_3"
  param {
    lr_mult: 1
    decay_mult: 1
  }
  param {
    lr_mult: 2
    decay_mult: 0
  }
  convolution_param {
    num_output: 512
    pad: 1
    kernel_size: 3
  }
}
layer {
  name: "relu5_3"
  type: "ReLU"
  bottom: "conv5_3"
  top: "conv5_3"
}
layer {
  name: "roi_pool5"
  type: "ROIPooling"
  bottom: "conv5_3"
  bottom: "rois"
  top: "pool5"
  roi_pooling_param {
    pooled_h: 7
    pooled_w: 7
    spatial_scale: 0.0625
  }
}
layer {
  name: "fc6"
  type: "InnerProduct"
  bottom: "pool5"
  top: "fc6"
  param {
    lr_mult: 1
    decay_mult: 1
  }
  param {
    lr_mult: 2
    decay_mult: 0
  }
  inner_product_param {
    num_output: 4096
  }
}
layer {
  name: "relu6"
  type: "ReLU"
  bottom: "fc6"
  top: "fc6"
}
layer {
  name: "drop6"
  type: "Dropout"
  bottom: "fc6"
  top: "fc6"
  dropout_param {
    dropout_ratio: 0.5
  }
}
layer {
  name: "fc7"
  type: "InnerProduct"
  bottom: "fc6"
  top: "fc7"
  param {
    lr_mult: 1
    decay_mult: 1
  }
  param {
    lr_mult: 2
    decay_mult: 0
  }
  inner_product_param {
    num_output: 4096
  }
}
layer {
  name: "relu7"
  type: "ReLU"
  bottom: "fc7"
  top: "fc7"
}
layer {
  name: "drop7"
  type: "Dropout"
  bottom: "fc7"
  top: "fc7"
  dropout_param {
    dropout_ratio: 0.5
  }
}
layer {
  name: "cls_score"
  type: "InnerProduct"
  bottom: "fc7"
  top: "cls_score"
  param {
    lr_mult: 1
    decay_mult: 1
  }
  param {
    lr_mult: 2
    decay_mult: 0
  }
  inner_product_param {
    num_output: 21
    weight_filler {
      type: "gaussian"
      std: 0.01
    }
    bias_filler {
      type: "constant"
      value: 0
    }
  }
}
layer {
  name: "bbox_pred"
  type: "InnerProduct"
  bottom: "fc7"
  top: "bbox_pred"
  param {
    lr_mult: 1
    decay_mult: 1
  }
  param {
    lr_mult: 2
    decay_mult: 0
  }
  inner_product_param {
    num_output: 84
    weight_filler {
      type: "gaussian"
      std: 0.001
    }
    bias_filler {
      type: "constant"
      value: 0
    }
  }
}
layer {
  name: "loss_cls"
  type: "SoftmaxWithLoss"
  bottom: "cls_score"
  bottom: "labels"
  top: "loss_cls"
  loss_weight: 1
}
layer {
  name: "loss_bbox"
  type: "SmoothL1Loss"
  bottom: "bbox_pred"
  bottom: "bbox_targets"
  bottom: "bbox_loss_weights"
  top: "loss_bbox"
  loss_weight: 1
}
I0210 12:42:18.227813 10618 layer_factory.hpp:74] Creating layer data
I0210 12:42:18.267068 10618 net.cpp:90] Creating Layer data
I0210 12:42:18.267081 10618 net.cpp:368] data -> data
I0210 12:42:18.267088 10618 net.cpp:368] data -> rois
I0210 12:42:18.267094 10618 net.cpp:368] data -> labels
I0210 12:42:18.267099 10618 net.cpp:368] data -> bbox_targets
I0210 12:42:18.267112 10618 net.cpp:368] data -> bbox_loss_weights
I0210 12:42:18.267117 10618 net.cpp:120] Setting up data
I0210 12:42:18.267501 10618 net.cpp:127] Top shape: 1 3 100 100 (30000)
I0210 12:42:18.267510 10618 net.cpp:127] Top shape: 1 5 (5)
I0210 12:42:18.267514 10618 net.cpp:127] Top shape: 1 (1)
I0210 12:42:18.267516 10618 net.cpp:127] Top shape: 1 84 (84)
I0210 12:42:18.267519 10618 net.cpp:127] Top shape: 1 84 (84)
I0210 12:42:18.267523 10618 layer_factory.hpp:74] Creating layer conv1_1
I0210 12:42:18.267531 10618 net.cpp:90] Creating Layer conv1_1
I0210 12:42:18.267534 10618 net.cpp:410] conv1_1 <- data
I0210 12:42:18.267539 10618 net.cpp:368] conv1_1 -> conv1_1
I0210 12:42:18.267544 10618 net.cpp:120] Setting up conv1_1
I0210 12:42:18.305927 10618 net.cpp:127] Top shape: 1 64 100 100 (640000)
I0210 12:42:18.305953 10618 layer_factory.hpp:74] Creating layer relu1_1
I0210 12:42:18.305965 10618 net.cpp:90] Creating Layer relu1_1
I0210 12:42:18.305971 10618 net.cpp:410] relu1_1 <- conv1_1
I0210 12:42:18.305991 10618 net.cpp:357] relu1_1 -> conv1_1 (in-place)
I0210 12:42:18.305999 10618 net.cpp:120] Setting up relu1_1
I0210 12:42:18.306056 10618 net.cpp:127] Top shape: 1 64 100 100 (640000)
I0210 12:42:18.306061 10618 layer_factory.hpp:74] Creating layer conv1_2
I0210 12:42:18.306069 10618 net.cpp:90] Creating Layer conv1_2
I0210 12:42:18.306073 10618 net.cpp:410] conv1_2 <- conv1_1
I0210 12:42:18.306080 10618 net.cpp:368] conv1_2 -> conv1_2
I0210 12:42:18.306088 10618 net.cpp:120] Setting up conv1_2
I0210 12:42:18.306381 10618 net.cpp:127] Top shape: 1 64 100 100 (640000)
I0210 12:42:18.306394 10618 layer_factory.hpp:74] Creating layer relu1_2
I0210 12:42:18.306401 10618 net.cpp:90] Creating Layer relu1_2
I0210 12:42:18.306422 10618 net.cpp:410] relu1_2 <- conv1_2
I0210 12:42:18.306426 10618 net.cpp:357] relu1_2 -> conv1_2 (in-place)
I0210 12:42:18.306429 10618 net.cpp:120] Setting up relu1_2
I0210 12:42:18.306586 10618 net.cpp:127] Top shape: 1 64 100 100 (640000)
I0210 12:42:18.306594 10618 layer_factory.hpp:74] Creating layer pool1
I0210 12:42:18.306602 10618 net.cpp:90] Creating Layer pool1
I0210 12:42:18.306607 10618 net.cpp:410] pool1 <- conv1_2
I0210 12:42:18.306627 10618 net.cpp:368] pool1 -> pool1
I0210 12:42:18.306632 10618 net.cpp:120] Setting up pool1
I0210 12:42:18.306706 10618 net.cpp:127] Top shape: 1 64 50 50 (160000)
I0210 12:42:18.306710 10618 layer_factory.hpp:74] Creating layer conv2_1
I0210 12:42:18.306715 10618 net.cpp:90] Creating Layer conv2_1
I0210 12:42:18.306717 10618 net.cpp:410] conv2_1 <- pool1
I0210 12:42:18.306723 10618 net.cpp:368] conv2_1 -> conv2_1
I0210 12:42:18.306730 10618 net.cpp:120] Setting up conv2_1
I0210 12:42:18.307014 10618 net.cpp:127] Top shape: 1 128 50 50 (320000)
I0210 12:42:18.307027 10618 layer_factory.hpp:74] Creating layer relu2_1
I0210 12:42:18.307034 10618 net.cpp:90] Creating Layer relu2_1
I0210 12:42:18.307039 10618 net.cpp:410] relu2_1 <- conv2_1
I0210 12:42:18.307059 10618 net.cpp:357] relu2_1 -> conv2_1 (in-place)
I0210 12:42:18.307062 10618 net.cpp:120] Setting up relu2_1
I0210 12:42:18.307131 10618 net.cpp:127] Top shape: 1 128 50 50 (320000)
I0210 12:42:18.307134 10618 layer_factory.hpp:74] Creating layer conv2_2
I0210 12:42:18.307142 10618 net.cpp:90] Creating Layer conv2_2
I0210 12:42:18.307153 10618 net.cpp:410] conv2_2 <- conv2_1
I0210 12:42:18.307157 10618 net.cpp:368] conv2_2 -> conv2_2
I0210 12:42:18.307163 10618 net.cpp:120] Setting up conv2_2
I0210 12:42:18.307574 10618 net.cpp:127] Top shape: 1 128 50 50 (320000)
I0210 12:42:18.307586 10618 layer_factory.hpp:74] Creating layer relu2_2
I0210 12:42:18.307593 10618 net.cpp:90] Creating Layer relu2_2
I0210 12:42:18.307598 10618 net.cpp:410] relu2_2 <- conv2_2
I0210 12:42:18.307603 10618 net.cpp:357] relu2_2 -> conv2_2 (in-place)
I0210 12:42:18.307610 10618 net.cpp:120] Setting up relu2_2
I0210 12:42:18.307659 10618 net.cpp:127] Top shape: 1 128 50 50 (320000)
I0210 12:42:18.307665 10618 layer_factory.hpp:74] Creating layer pool2
I0210 12:42:18.307673 10618 net.cpp:90] Creating Layer pool2
I0210 12:42:18.307677 10618 net.cpp:410] pool2 <- conv2_2
I0210 12:42:18.307682 10618 net.cpp:368] pool2 -> pool2
I0210 12:42:18.307687 10618 net.cpp:120] Setting up pool2
I0210 12:42:18.307813 10618 net.cpp:127] Top shape: 1 128 25 25 (80000)
I0210 12:42:18.307821 10618 layer_factory.hpp:74] Creating layer conv3_1
I0210 12:42:18.307828 10618 net.cpp:90] Creating Layer conv3_1
I0210 12:42:18.307833 10618 net.cpp:410] conv3_1 <- pool2
I0210 12:42:18.307839 10618 net.cpp:368] conv3_1 -> conv3_1
I0210 12:42:18.307845 10618 net.cpp:120] Setting up conv3_1
I0210 12:42:18.308398 10618 net.cpp:127] Top shape: 1 256 25 25 (160000)
I0210 12:42:18.308411 10618 layer_factory.hpp:74] Creating layer relu3_1
I0210 12:42:18.308418 10618 net.cpp:90] Creating Layer relu3_1
I0210 12:42:18.308423 10618 net.cpp:410] relu3_1 <- conv3_1
I0210 12:42:18.308429 10618 net.cpp:357] relu3_1 -> conv3_1 (in-place)
I0210 12:42:18.308435 10618 net.cpp:120] Setting up relu3_1
I0210 12:42:18.308491 10618 net.cpp:127] Top shape: 1 256 25 25 (160000)
I0210 12:42:18.308497 10618 layer_factory.hpp:74] Creating layer conv3_2
I0210 12:42:18.308506 10618 net.cpp:90] Creating Layer conv3_2
I0210 12:42:18.308511 10618 net.cpp:410] conv3_2 <- conv3_1
I0210 12:42:18.308516 10618 net.cpp:368] conv3_2 -> conv3_2
I0210 12:42:18.308522 10618 net.cpp:120] Setting up conv3_2
I0210 12:42:18.309197 10618 net.cpp:127] Top shape: 1 256 25 25 (160000)
I0210 12:42:18.309209 10618 layer_factory.hpp:74] Creating layer relu3_2
I0210 12:42:18.309218 10618 net.cpp:90] Creating Layer relu3_2
I0210 12:42:18.309223 10618 net.cpp:410] relu3_2 <- conv3_2
I0210 12:42:18.309227 10618 net.cpp:357] relu3_2 -> conv3_2 (in-place)
I0210 12:42:18.309232 10618 net.cpp:120] Setting up relu3_2
I0210 12:42:18.309288 10618 net.cpp:127] Top shape: 1 256 25 25 (160000)
I0210 12:42:18.309295 10618 layer_factory.hpp:74] Creating layer conv3_3
I0210 12:42:18.309303 10618 net.cpp:90] Creating Layer conv3_3
I0210 12:42:18.309308 10618 net.cpp:410] conv3_3 <- conv3_2
I0210 12:42:18.309312 10618 net.cpp:368] conv3_3 -> conv3_3
I0210 12:42:18.309320 10618 net.cpp:120] Setting up conv3_3
I0210 12:42:18.310212 10618 net.cpp:127] Top shape: 1 256 25 25 (160000)
I0210 12:42:18.310225 10618 layer_factory.hpp:74] Creating layer relu3_3
I0210 12:42:18.310237 10618 net.cpp:90] Creating Layer relu3_3
I0210 12:42:18.310242 10618 net.cpp:410] relu3_3 <- conv3_3
I0210 12:42:18.310246 10618 net.cpp:357] relu3_3 -> conv3_3 (in-place)
I0210 12:42:18.310253 10618 net.cpp:120] Setting up relu3_3
I0210 12:42:18.310312 10618 net.cpp:127] Top shape: 1 256 25 25 (160000)
I0210 12:42:18.310317 10618 layer_factory.hpp:74] Creating layer pool3
I0210 12:42:18.310324 10618 net.cpp:90] Creating Layer pool3
I0210 12:42:18.310328 10618 net.cpp:410] pool3 <- conv3_3
I0210 12:42:18.310334 10618 net.cpp:368] pool3 -> pool3
I0210 12:42:18.310341 10618 net.cpp:120] Setting up pool3
I0210 12:42:18.310469 10618 net.cpp:127] Top shape: 1 256 13 13 (43264)
I0210 12:42:18.310477 10618 layer_factory.hpp:74] Creating layer conv4_1
I0210 12:42:18.310484 10618 net.cpp:90] Creating Layer conv4_1
I0210 12:42:18.310488 10618 net.cpp:410] conv4_1 <- pool3
I0210 12:42:18.310494 10618 net.cpp:368] conv4_1 -> conv4_1
I0210 12:42:18.310500 10618 net.cpp:120] Setting up conv4_1
I0210 12:42:18.311823 10618 net.cpp:127] Top shape: 1 512 13 13 (86528)
I0210 12:42:18.311838 10618 layer_factory.hpp:74] Creating layer relu4_1
I0210 12:42:18.311847 10618 net.cpp:90] Creating Layer relu4_1
I0210 12:42:18.311852 10618 net.cpp:410] relu4_1 <- conv4_1
I0210 12:42:18.311857 10618 net.cpp:357] relu4_1 -> conv4_1 (in-place)
I0210 12:42:18.311863 10618 net.cpp:120] Setting up relu4_1
I0210 12:42:18.311918 10618 net.cpp:127] Top shape: 1 512 13 13 (86528)
I0210 12:42:18.311925 10618 layer_factory.hpp:74] Creating layer conv4_2
I0210 12:42:18.311933 10618 net.cpp:90] Creating Layer conv4_2
I0210 12:42:18.311939 10618 net.cpp:410] conv4_2 <- conv4_1
I0210 12:42:18.311942 10618 net.cpp:368] conv4_2 -> conv4_2
I0210 12:42:18.311954 10618 net.cpp:120] Setting up conv4_2
I0210 12:42:18.315174 10618 net.cpp:127] Top shape: 1 512 13 13 (86528)
I0210 12:42:18.315207 10618 layer_factory.hpp:74] Creating layer relu4_2
I0210 12:42:18.315217 10618 net.cpp:90] Creating Layer relu4_2
I0210 12:42:18.315222 10618 net.cpp:410] relu4_2 <- conv4_2
I0210 12:42:18.315229 10618 net.cpp:357] relu4_2 -> conv4_2 (in-place)
I0210 12:42:18.315237 10618 net.cpp:120] Setting up relu4_2
I0210 12:42:18.315290 10618 net.cpp:127] Top shape: 1 512 13 13 (86528)
I0210 12:42:18.315296 10618 layer_factory.hpp:74] Creating layer conv4_3
I0210 12:42:18.315305 10618 net.cpp:90] Creating Layer conv4_3
I0210 12:42:18.315310 10618 net.cpp:410] conv4_3 <- conv4_2
I0210 12:42:18.315315 10618 net.cpp:368] conv4_3 -> conv4_3
I0210 12:42:18.315321 10618 net.cpp:120] Setting up conv4_3
I0210 12:42:18.322444 10618 net.cpp:127] Top shape: 1 512 13 13 (86528)
I0210 12:42:18.322474 10618 layer_factory.hpp:74] Creating layer relu4_3
I0210 12:42:18.322484 10618 net.cpp:90] Creating Layer relu4_3
I0210 12:42:18.322490 10618 net.cpp:410] relu4_3 <- conv4_3
I0210 12:42:18.322497 10618 net.cpp:357] relu4_3 -> conv4_3 (in-place)
I0210 12:42:18.322506 10618 net.cpp:120] Setting up relu4_3
I0210 12:42:18.322638 10618 net.cpp:127] Top shape: 1 512 13 13 (86528)
I0210 12:42:18.322645 10618 layer_factory.hpp:74] Creating layer pool4
I0210 12:42:18.322652 10618 net.cpp:90] Creating Layer pool4
I0210 12:42:18.322656 10618 net.cpp:410] pool4 <- conv4_3
I0210 12:42:18.322664 10618 net.cpp:368] pool4 -> pool4
I0210 12:42:18.322669 10618 net.cpp:120] Setting up pool4
I0210 12:42:18.322718 10618 net.cpp:127] Top shape: 1 512 7 7 (25088)
I0210 12:42:18.322722 10618 layer_factory.hpp:74] Creating layer conv5_1
I0210 12:42:18.322732 10618 net.cpp:90] Creating Layer conv5_1
I0210 12:42:18.322737 10618 net.cpp:410] conv5_1 <- pool4
I0210 12:42:18.322743 10618 net.cpp:368] conv5_1 -> conv5_1
I0210 12:42:18.322751 10618 net.cpp:120] Setting up conv5_1
I0210 12:42:18.327641 10618 net.cpp:127] Top shape: 1 512 7 7 (25088)
I0210 12:42:18.327672 10618 layer_factory.hpp:74] Creating layer relu5_1
I0210 12:42:18.327682 10618 net.cpp:90] Creating Layer relu5_1
I0210 12:42:18.327692 10618 net.cpp:410] relu5_1 <- conv5_1
I0210 12:42:18.327699 10618 net.cpp:357] relu5_1 -> conv5_1 (in-place)
I0210 12:42:18.327707 10618 net.cpp:120] Setting up relu5_1
I0210 12:42:18.327757 10618 net.cpp:127] Top shape: 1 512 7 7 (25088)
I0210 12:42:18.327764 10618 layer_factory.hpp:74] Creating layer conv5_2
I0210 12:42:18.327774 10618 net.cpp:90] Creating Layer conv5_2
I0210 12:42:18.327777 10618 net.cpp:410] conv5_2 <- conv5_1
I0210 12:42:18.327785 10618 net.cpp:368] conv5_2 -> conv5_2
I0210 12:42:18.327791 10618 net.cpp:120] Setting up conv5_2
I0210 12:42:18.334213 10618 net.cpp:127] Top shape: 1 512 7 7 (25088)
I0210 12:42:18.334240 10618 layer_factory.hpp:74] Creating layer relu5_2
I0210 12:42:18.334251 10618 net.cpp:90] Creating Layer relu5_2
I0210 12:42:18.334257 10618 net.cpp:410] relu5_2 <- conv5_2
I0210 12:42:18.334281 10618 net.cpp:357] relu5_2 -> conv5_2 (in-place)
I0210 12:42:18.334290 10618 net.cpp:120] Setting up relu5_2
I0210 12:42:18.334345 10618 net.cpp:127] Top shape: 1 512 7 7 (25088)
I0210 12:42:18.334349 10618 layer_factory.hpp:74] Creating layer conv5_3
I0210 12:42:18.334355 10618 net.cpp:90] Creating Layer conv5_3
I0210 12:42:18.334359 10618 net.cpp:410] conv5_3 <- conv5_2
I0210 12:42:18.334378 10618 net.cpp:368] conv5_3 -> conv5_3
I0210 12:42:18.334394 10618 net.cpp:120] Setting up conv5_3
I0210 12:42:18.339787 10618 net.cpp:127] Top shape: 1 512 7 7 (25088)
I0210 12:42:18.339815 10618 layer_factory.hpp:74] Creating layer relu5_3
I0210 12:42:18.339826 10618 net.cpp:90] Creating Layer relu5_3
I0210 12:42:18.339833 10618 net.cpp:410] relu5_3 <- conv5_3
I0210 12:42:18.339839 10618 net.cpp:357] relu5_3 -> conv5_3 (in-place)
I0210 12:42:18.339860 10618 net.cpp:120] Setting up relu5_3
I0210 12:42:18.340042 10618 net.cpp:127] Top shape: 1 512 7 7 (25088)
I0210 12:42:18.340050 10618 layer_factory.hpp:74] Creating layer roi_pool5
I0210 12:42:18.340059 10618 net.cpp:90] Creating Layer roi_pool5
I0210 12:42:18.340062 10618 net.cpp:410] roi_pool5 <- conv5_3
I0210 12:42:18.340082 10618 net.cpp:410] roi_pool5 <- rois
I0210 12:42:18.340086 10618 net.cpp:368] roi_pool5 -> pool5
I0210 12:42:18.340091 10618 net.cpp:120] Setting up roi_pool5
I0210 12:42:18.340101 10618 roi_pooling_layer.cpp:30] Spatial scale: 0.0625
I0210 12:42:18.340114 10618 net.cpp:127] Top shape: 1 512 7 7 (25088)
I0210 12:42:18.340129 10618 layer_factory.hpp:74] Creating layer fc6
I0210 12:42:18.340144 10618 net.cpp:90] Creating Layer fc6
I0210 12:42:18.340149 10618 net.cpp:410] fc6 <- pool5
I0210 12:42:18.340164 10618 net.cpp:368] fc6 -> fc6
I0210 12:42:18.340169 10618 net.cpp:120] Setting up fc6
I0210 12:42:18.649421 10618 net.cpp:127] Top shape: 1 4096 (4096)
I0210 12:42:18.649453 10618 layer_factory.hpp:74] Creating layer relu6
I0210 12:42:18.649466 10618 net.cpp:90] Creating Layer relu6
I0210 12:42:18.649472 10618 net.cpp:410] relu6 <- fc6
I0210 12:42:18.649497 10618 net.cpp:357] relu6 -> fc6 (in-place)
I0210 12:42:18.649507 10618 net.cpp:120] Setting up relu6
I0210 12:42:18.649653 10618 net.cpp:127] Top shape: 1 4096 (4096)
I0210 12:42:18.649668 10618 layer_factory.hpp:74] Creating layer drop6
I0210 12:42:18.649675 10618 net.cpp:90] Creating Layer drop6
I0210 12:42:18.649679 10618 net.cpp:410] drop6 <- fc6
I0210 12:42:18.649695 10618 net.cpp:357] drop6 -> fc6 (in-place)
I0210 12:42:18.649711 10618 net.cpp:120] Setting up drop6
I0210 12:42:18.649716 10618 net.cpp:127] Top shape: 1 4096 (4096)
I0210 12:42:18.649718 10618 layer_factory.hpp:74] Creating layer fc7
I0210 12:42:18.649735 10618 net.cpp:90] Creating Layer fc7
I0210 12:42:18.649739 10618 net.cpp:410] fc7 <- fc6
I0210 12:42:18.649741 10618 net.cpp:368] fc7 -> fc7
I0210 12:42:18.649747 10618 net.cpp:120] Setting up fc7
I0210 12:42:18.696287 10618 net.cpp:127] Top shape: 1 4096 (4096)
I0210 12:42:18.696317 10618 layer_factory.hpp:74] Creating layer relu7
I0210 12:42:18.696328 10618 net.cpp:90] Creating Layer relu7
I0210 12:42:18.696346 10618 net.cpp:410] relu7 <- fc7
I0210 12:42:18.696364 10618 net.cpp:357] relu7 -> fc7 (in-place)
I0210 12:42:18.696372 10618 net.cpp:120] Setting up relu7
I0210 12:42:18.696517 10618 net.cpp:127] Top shape: 1 4096 (4096)
I0210 12:42:18.696524 10618 layer_factory.hpp:74] Creating layer drop7
I0210 12:42:18.696532 10618 net.cpp:90] Creating Layer drop7
I0210 12:42:18.696535 10618 net.cpp:410] drop7 <- fc7
I0210 12:42:18.696540 10618 net.cpp:357] drop7 -> fc7 (in-place)
I0210 12:42:18.696557 10618 net.cpp:120] Setting up drop7
I0210 12:42:18.696574 10618 net.cpp:127] Top shape: 1 4096 (4096)
I0210 12:42:18.696578 10618 layer_factory.hpp:74] Creating layer fc7_drop7_0_split
I0210 12:42:18.696609 10618 net.cpp:90] Creating Layer fc7_drop7_0_split
I0210 12:42:18.696612 10618 net.cpp:410] fc7_drop7_0_split <- fc7
I0210 12:42:18.696616 10618 net.cpp:368] fc7_drop7_0_split -> fc7_drop7_0_split_0
I0210 12:42:18.696624 10618 net.cpp:368] fc7_drop7_0_split -> fc7_drop7_0_split_1
I0210 12:42:18.696631 10618 net.cpp:120] Setting up fc7_drop7_0_split
I0210 12:42:18.696645 10618 net.cpp:127] Top shape: 1 4096 (4096)
I0210 12:42:18.696647 10618 net.cpp:127] Top shape: 1 4096 (4096)
I0210 12:42:18.696650 10618 layer_factory.hpp:74] Creating layer cls_score
I0210 12:42:18.696658 10618 net.cpp:90] Creating Layer cls_score
I0210 12:42:18.696673 10618 net.cpp:410] cls_score <- fc7_drop7_0_split_0
I0210 12:42:18.696691 10618 net.cpp:368] cls_score -> cls_score
I0210 12:42:18.696699 10618 net.cpp:120] Setting up cls_score
I0210 12:42:18.698670 10618 net.cpp:127] Top shape: 1 21 (21)
I0210 12:42:18.698681 10618 layer_factory.hpp:74] Creating layer bbox_pred
I0210 12:42:18.698700 10618 net.cpp:90] Creating Layer bbox_pred
I0210 12:42:18.698714 10618 net.cpp:410] bbox_pred <- fc7_drop7_0_split_1
I0210 12:42:18.698719 10618 net.cpp:368] bbox_pred -> bbox_pred
I0210 12:42:18.698724 10618 net.cpp:120] Setting up bbox_pred
I0210 12:42:18.706483 10618 net.cpp:127] Top shape: 1 84 (84)
I0210 12:42:18.706513 10618 layer_factory.hpp:74] Creating layer loss_cls
I0210 12:42:18.706521 10618 net.cpp:90] Creating Layer loss_cls
I0210 12:42:18.706523 10618 net.cpp:410] loss_cls <- cls_score
I0210 12:42:18.706526 10618 net.cpp:410] loss_cls <- labels
I0210 12:42:18.706542 10618 net.cpp:368] loss_cls -> loss_cls
I0210 12:42:18.706552 10618 net.cpp:120] Setting up loss_cls
I0210 12:42:18.706557 10618 layer_factory.hpp:74] Creating layer loss_cls
…
