…
snapshot_prefix: "vgg16_fast_rcnn_step4"
average_loss: 100
I0212 03:11:13.044458   749 solver.cpp:66] Creating training net from train_net file: models/VGG16/train_step4.prototxt
I0212 03:11:13.061501   749 net.cpp:42] Initializing net from parameters: 
name: "VGG_ILSVRC_16_layers"
state {
  phase: TRAIN
}
layer {
  name: "data"
  type: "Python"
  top: "data"
  top: "rois"
  top: "labels"
  top: "bbox_targets"
  top: "bbox_loss_weights"
  python_param {
    module: "roi_data_layer.layer"
    layer: "RoIDataLayer"
    param_str: "\'num_classes\': 21"
  }
}
layer {
  name: "conv1_1"
  type: "Convolution"
  bottom: "data"
  top: "conv1_1"
  param {
    lr_mult: 0
    decay_mult: 0
  }
  param {
    lr_mult: 0
    decay_mult: 0
  }
  convolution_param {
    num_output: 64
    pad: 1
    kernel_size: 3
  }
}
layer {
  name: "relu1_1"
  type: "ReLU"
  bottom: "conv1_1"
  top: "conv1_1"
}
layer {
  name: "conv1_2"
  type: "Convolution"
  bottom: "conv1_1"
  top: "conv1_2"
  param {
    lr_mult: 0
    decay_mult: 0
  }
  param {
    lr_mult: 0
    decay_mult: 0
  }
  convolution_param {
    num_output: 64
    pad: 1
    kernel_size: 3
  }
}
layer {
  name: "relu1_2"
  type: "ReLU"
  bottom: "conv1_2"
  top: "conv1_2"
}
layer {
  name: "pool1"
  type: "Pooling"
  bottom: "conv1_2"
  top: "pool1"
  pooling_param {
    pool: MAX
    kernel_size: 2
    stride: 2
  }
}
layer {
  name: "conv2_1"
  type: "Convolution"
  bottom: "pool1"
  top: "conv2_1"
  param {
    lr_mult: 0
    decay_mult: 0
  }
  param {
    lr_mult: 0
    decay_mult: 0
  }
  convolution_param {
    num_output: 128
    pad: 1
    kernel_size: 3
  }
}
layer {
  name: "relu2_1"
  type: "ReLU"
  bottom: "conv2_1"
  top: "conv2_1"
}
layer {
  name: "conv2_2"
  type: "Convolution"
  bottom: "conv2_1"
  top: "conv2_2"
  param {
    lr_mult: 0
    decay_mult: 0
  }
  param {
    lr_mult: 0
    decay_mult: 0
  }
  convolution_param {
    num_output: 128
    pad: 1
    kernel_size: 3
  }
}
layer {
  name: "relu2_2"
  type: "ReLU"
  bottom: "conv2_2"
  top: "conv2_2"
}
layer {
  name: "pool2"
  type: "Pooling"
  bottom: "conv2_2"
  top: "pool2"
  pooling_param {
    pool: MAX
    kernel_size: 2
    stride: 2
  }
}
layer {
  name: "conv3_1"
  type: "Convolution"
  bottom: "pool2"
  top: "conv3_1"
  param {
    lr_mult: 0
    decay_mult: 0
  }
  param {
    lr_mult: 0
    decay_mult: 0
  }
  convolution_param {
    num_output: 256
    pad: 1
    kernel_size: 3
  }
}
layer {
  name: "relu3_1"
  type: "ReLU"
  bottom: "conv3_1"
  top: "conv3_1"
}
layer {
  name: "conv3_2"
  type: "Convolution"
  bottom: "conv3_1"
  top: "conv3_2"
  param {
    lr_mult: 0
    decay_mult: 0
  }
  param {
    lr_mult: 0
    decay_mult: 0
  }
  convolution_param {
    num_output: 256
    pad: 1
    kernel_size: 3
  }
}
layer {
  name: "relu3_2"
  type: "ReLU"
  bottom: "conv3_2"
  top: "conv3_2"
}
layer {
  name: "conv3_3"
  type: "Convolution"
  bottom: "conv3_2"
  top: "conv3_3"
  param {
    lr_mult: 0
    decay_mult: 0
  }
  param {
    lr_mult: 0
    decay_mult: 0
  }
  convolution_param {
    num_output: 256
    pad: 1
    kernel_size: 3
  }
}
layer {
  name: "relu3_3"
  type: "ReLU"
  bottom: "conv3_3"
  top: "conv3_3"
}
layer {
  name: "pool3"
  type: "Pooling"
  bottom: "conv3_3"
  top: "pool3"
  pooling_param {
    pool: MAX
    kernel_size: 2
    stride: 2
  }
}
layer {
  name: "conv4_1"
  type: "Convolution"
  bottom: "pool3"
  top: "conv4_1"
  param {
    lr_mult: 0
    decay_mult: 0
  }
  param {
    lr_mult: 0
    decay_mult: 0
  }
  convolution_param {
    num_output: 512
    pad: 1
    kernel_size: 3
  }
}
layer {
  name: "relu4_1"
  type: "ReLU"
  bottom: "conv4_1"
  top: "conv4_1"
}
layer {
  name: "conv4_2"
  type: "Convolution"
  bottom: "conv4_1"
  top: "conv4_2"
  param {
    lr_mult: 0
    decay_mult: 0
  }
  param {
    lr_mult: 0
    decay_mult: 0
  }
  convolution_param {
    num_output: 512
    pad: 1
    kernel_size: 3
  }
}
layer {
  name: "relu4_2"
  type: "ReLU"
  bottom: "conv4_2"
  top: "conv4_2"
}
layer {
  name: "conv4_3"
  type: "Convolution"
  bottom: "conv4_2"
  top: "conv4_3"
  param {
    lr_mult: 0
    decay_mult: 0
  }
  param {
    lr_mult: 0
    decay_mult: 0
  }
  convolution_param {
    num_output: 512
    pad: 1
    kernel_size: 3
  }
}
layer {
  name: "relu4_3"
  type: "ReLU"
  bottom: "conv4_3"
  top: "conv4_3"
}
layer {
  name: "pool4"
  type: "Pooling"
  bottom: "conv4_3"
  top: "pool4"
  pooling_param {
    pool: MAX
    kernel_size: 2
    stride: 2
  }
}
layer {
  name: "conv5_1"
  type: "Convolution"
  bottom: "pool4"
  top: "conv5_1"
  param {
    lr_mult: 0
    decay_mult: 0
  }
  param {
    lr_mult: 0
    decay_mult: 0
  }
  convolution_param {
    num_output: 512
    pad: 1
    kernel_size: 3
  }
}
layer {
  name: "relu5_1"
  type: "ReLU"
  bottom: "conv5_1"
  top: "conv5_1"
}
layer {
  name: "conv5_2"
  type: "Convolution"
  bottom: "conv5_1"
  top: "conv5_2"
  param {
    lr_mult: 0
    decay_mult: 0
  }
  param {
    lr_mult: 0
    decay_mult: 0
  }
  convolution_param {
    num_output: 512
    pad: 1
    kernel_size: 3
  }
}
layer {
  name: "relu5_2"
  type: "ReLU"
  bottom: "conv5_2"
  top: "conv5_2"
}
layer {
  name: "conv5_3"
  type: "Convolution"
  bottom: "conv5_2"
  top: "conv5_3"
  param {
    lr_mult: 0
    decay_mult: 0
  }
  param {
    lr_mult: 0
    decay_mult: 0
  }
  convolution_param {
    num_output: 512
    pad: 1
    kernel_size: 3
  }
}
layer {
  name: "relu5_3"
  type: "ReLU"
  bottom: "conv5_3"
  top: "conv5_3"
}
layer {
  name: "roi_pool5"
  type: "ROIPooling"
  bottom: "conv5_3"
  bottom: "rois"
  top: "pool5"
  roi_pooling_param {
    pooled_h: 7
    pooled_w: 7
    spatial_scale: 0.0625
  }
}
layer {
  name: "fc6"
  type: "InnerProduct"
  bottom: "pool5"
  top: "fc6"
  param {
    lr_mult: 1
    decay_mult: 1
  }
  param {
    lr_mult: 2
    decay_mult: 0
  }
  inner_product_param {
    num_output: 4096
  }
}
layer {
  name: "relu6"
  type: "ReLU"
  bottom: "fc6"
  top: "fc6"
}
layer {
  name: "drop6"
  type: "Dropout"
  bottom: "fc6"
  top: "fc6"
  dropout_param {
    dropout_ratio: 0.5
  }
}
layer {
  name: "fc7"
  type: "InnerProduct"
  bottom: "fc6"
  top: "fc7"
  param {
    lr_mult: 1
    decay_mult: 1
  }
  param {
    lr_mult: 2
    decay_mult: 0
  }
  inner_product_param {
    num_output: 4096
  }
}
layer {
  name: "relu7"
  type: "ReLU"
  bottom: "fc7"
  top: "fc7"
}
layer {
  name: "drop7"
  type: "Dropout"
  bottom: "fc7"
  top: "fc7"
  dropout_param {
    dropout_ratio: 0.5
  }
}
layer {
  name: "cls_score"
  type: "InnerProduct"
  bottom: "fc7"
  top: "cls_score"
  param {
    lr_mult: 1
    decay_mult: 1
  }
  param {
    lr_mult: 2
    decay_mult: 0
  }
  inner_product_param {
    num_output: 21
    weight_filler {
      type: "gaussian"
      std: 0.01
    }
    bias_filler {
      type: "constant"
      value: 0
    }
  }
}
layer {
  name: "bbox_pred"
  type: "InnerProduct"
  bottom: "fc7"
  top: "bbox_pred"
  param {
    lr_mult: 1
    decay_mult: 1
  }
  param {
    lr_mult: 2
    decay_mult: 0
  }
  inner_product_param {
    num_output: 84
    weight_filler {
      type: "gaussian"
      std: 0.001
    }
    bias_filler {
      type: "constant"
      value: 0
    }
  }
}
layer {
  name: "loss_cls"
  type: "SoftmaxWithLoss"
  bottom: "cls_score"
  bottom: "labels"
  top: "loss_cls"
  loss_weight: 1
}
layer {
  name: "loss_bbox"
  type: "SmoothL1Loss"
  bottom: "bbox_pred"
  bottom: "bbox_targets"
  bottom: "bbox_loss_weights"
  top: "loss_bbox"
  loss_weight: 1
}
I0212 03:11:13.061625   749 layer_factory.hpp:74] Creating layer data
I0212 03:11:13.097048   749 net.cpp:90] Creating Layer data
I0212 03:11:13.097064   749 net.cpp:368] data -> data
I0212 03:11:13.097070   749 net.cpp:368] data -> rois
I0212 03:11:13.097076   749 net.cpp:368] data -> labels
I0212 03:11:13.097082   749 net.cpp:368] data -> bbox_targets
I0212 03:11:13.097100   749 net.cpp:368] data -> bbox_loss_weights
I0212 03:11:13.097106   749 net.cpp:120] Setting up data
I0212 03:11:13.097492   749 net.cpp:127] Top shape: 1 3 100 100 (30000)
I0212 03:11:13.097501   749 net.cpp:127] Top shape: 1 5 (5)
I0212 03:11:13.097506   749 net.cpp:127] Top shape: 1 (1)
I0212 03:11:13.097520   749 net.cpp:127] Top shape: 1 84 (84)
I0212 03:11:13.097525   749 net.cpp:127] Top shape: 1 84 (84)
I0212 03:11:13.097530   749 layer_factory.hpp:74] Creating layer conv1_1
I0212 03:11:13.097543   749 net.cpp:90] Creating Layer conv1_1
I0212 03:11:13.097549   749 net.cpp:410] conv1_1 <- data
I0212 03:11:13.097558   749 net.cpp:368] conv1_1 -> conv1_1
I0212 03:11:13.097566   749 net.cpp:120] Setting up conv1_1
I0212 03:11:13.156919   749 net.cpp:127] Top shape: 1 64 100 100 (640000)
I0212 03:11:13.156944   749 layer_factory.hpp:74] Creating layer relu1_1
I0212 03:11:13.156955   749 net.cpp:90] Creating Layer relu1_1
I0212 03:11:13.156958   749 net.cpp:410] relu1_1 <- conv1_1
I0212 03:11:13.156963   749 net.cpp:357] relu1_1 -> conv1_1 (in-place)
I0212 03:11:13.156980   749 net.cpp:120] Setting up relu1_1
I0212 03:11:13.157058   749 net.cpp:127] Top shape: 1 64 100 100 (640000)
I0212 03:11:13.157061   749 layer_factory.hpp:74] Creating layer conv1_2
I0212 03:11:13.157076   749 net.cpp:90] Creating Layer conv1_2
I0212 03:11:13.157079   749 net.cpp:410] conv1_2 <- conv1_1
I0212 03:11:13.157083   749 net.cpp:368] conv1_2 -> conv1_2
I0212 03:11:13.157097   749 net.cpp:120] Setting up conv1_2
I0212 03:11:13.157443   749 net.cpp:127] Top shape: 1 64 100 100 (640000)
I0212 03:11:13.157454   749 layer_factory.hpp:74] Creating layer relu1_2
I0212 03:11:13.157459   749 net.cpp:90] Creating Layer relu1_2
I0212 03:11:13.157461   749 net.cpp:410] relu1_2 <- conv1_2
I0212 03:11:13.157465   749 net.cpp:357] relu1_2 -> conv1_2 (in-place)
I0212 03:11:13.157469   749 net.cpp:120] Setting up relu1_2
I0212 03:11:13.157676   749 net.cpp:127] Top shape: 1 64 100 100 (640000)
I0212 03:11:13.157692   749 layer_factory.hpp:74] Creating layer pool1
I0212 03:11:13.157697   749 net.cpp:90] Creating Layer pool1
I0212 03:11:13.157699   749 net.cpp:410] pool1 <- conv1_2
I0212 03:11:13.157704   749 net.cpp:368] pool1 -> pool1
I0212 03:11:13.157708   749 net.cpp:120] Setting up pool1
I0212 03:11:13.157774   749 net.cpp:127] Top shape: 1 64 50 50 (160000)
I0212 03:11:13.157778   749 layer_factory.hpp:74] Creating layer conv2_1
I0212 03:11:13.157785   749 net.cpp:90] Creating Layer conv2_1
I0212 03:11:13.157788   749 net.cpp:410] conv2_1 <- pool1
I0212 03:11:13.157793   749 net.cpp:368] conv2_1 -> conv2_1
I0212 03:11:13.157798   749 net.cpp:120] Setting up conv2_1
I0212 03:11:13.158134   749 net.cpp:127] Top shape: 1 128 50 50 (320000)
I0212 03:11:13.158144   749 layer_factory.hpp:74] Creating layer relu2_1
I0212 03:11:13.158159   749 net.cpp:90] Creating Layer relu2_1
I0212 03:11:13.158162   749 net.cpp:410] relu2_1 <- conv2_1
I0212 03:11:13.158166   749 net.cpp:357] relu2_1 -> conv2_1 (in-place)
I0212 03:11:13.158169   749 net.cpp:120] Setting up relu2_1
I0212 03:11:13.158222   749 net.cpp:127] Top shape: 1 128 50 50 (320000)
I0212 03:11:13.158226   749 layer_factory.hpp:74] Creating layer conv2_2
I0212 03:11:13.158243   749 net.cpp:90] Creating Layer conv2_2
I0212 03:11:13.158246   749 net.cpp:410] conv2_2 <- conv2_1
I0212 03:11:13.158252   749 net.cpp:368] conv2_2 -> conv2_2
I0212 03:11:13.158257   749 net.cpp:120] Setting up conv2_2
I0212 03:11:13.158660   749 net.cpp:127] Top shape: 1 128 50 50 (320000)
I0212 03:11:13.158670   749 layer_factory.hpp:74] Creating layer relu2_2
I0212 03:11:13.158685   749 net.cpp:90] Creating Layer relu2_2
I0212 03:11:13.158689   749 net.cpp:410] relu2_2 <- conv2_2
I0212 03:11:13.158691   749 net.cpp:357] relu2_2 -> conv2_2 (in-place)
I0212 03:11:13.158695   749 net.cpp:120] Setting up relu2_2
I0212 03:11:13.158735   749 net.cpp:127] Top shape: 1 128 50 50 (320000)
I0212 03:11:13.158748   749 layer_factory.hpp:74] Creating layer pool2
I0212 03:11:13.158753   749 net.cpp:90] Creating Layer pool2
I0212 03:11:13.158756   749 net.cpp:410] pool2 <- conv2_2
I0212 03:11:13.158768   749 net.cpp:368] pool2 -> pool2
I0212 03:11:13.158772   749 net.cpp:120] Setting up pool2
I0212 03:11:13.158910   749 net.cpp:127] Top shape: 1 128 25 25 (80000)
I0212 03:11:13.158917   749 layer_factory.hpp:74] Creating layer conv3_1
I0212 03:11:13.158922   749 net.cpp:90] Creating Layer conv3_1
I0212 03:11:13.158926   749 net.cpp:410] conv3_1 <- pool2
I0212 03:11:13.158931   749 net.cpp:368] conv3_1 -> conv3_1
I0212 03:11:13.158934   749 net.cpp:120] Setting up conv3_1
I0212 03:11:13.159521   749 net.cpp:127] Top shape: 1 256 25 25 (160000)
I0212 03:11:13.159533   749 layer_factory.hpp:74] Creating layer relu3_1
I0212 03:11:13.159538   749 net.cpp:90] Creating Layer relu3_1
I0212 03:11:13.159540   749 net.cpp:410] relu3_1 <- conv3_1
I0212 03:11:13.159544   749 net.cpp:357] relu3_1 -> conv3_1 (in-place)
I0212 03:11:13.159548   749 net.cpp:120] Setting up relu3_1
I0212 03:11:13.159590   749 net.cpp:127] Top shape: 1 256 25 25 (160000)
I0212 03:11:13.159595   749 layer_factory.hpp:74] Creating layer conv3_2
I0212 03:11:13.159600   749 net.cpp:90] Creating Layer conv3_2
I0212 03:11:13.159602   749 net.cpp:410] conv3_2 <- conv3_1
I0212 03:11:13.159606   749 net.cpp:368] conv3_2 -> conv3_2
I0212 03:11:13.159610   749 net.cpp:120] Setting up conv3_2
I0212 03:11:13.160557   749 net.cpp:127] Top shape: 1 256 25 25 (160000)
I0212 03:11:13.160565   749 layer_factory.hpp:74] Creating layer relu3_2
I0212 03:11:13.160570   749 net.cpp:90] Creating Layer relu3_2
I0212 03:11:13.160573   749 net.cpp:410] relu3_2 <- conv3_2
I0212 03:11:13.160576   749 net.cpp:357] relu3_2 -> conv3_2 (in-place)
I0212 03:11:13.160580   749 net.cpp:120] Setting up relu3_2
I0212 03:11:13.160620   749 net.cpp:127] Top shape: 1 256 25 25 (160000)
I0212 03:11:13.160625   749 layer_factory.hpp:74] Creating layer conv3_3
I0212 03:11:13.160629   749 net.cpp:90] Creating Layer conv3_3
I0212 03:11:13.160631   749 net.cpp:410] conv3_3 <- conv3_2
I0212 03:11:13.160636   749 net.cpp:368] conv3_3 -> conv3_3
I0212 03:11:13.160640   749 net.cpp:120] Setting up conv3_3
I0212 03:11:13.161558   749 net.cpp:127] Top shape: 1 256 25 25 (160000)
I0212 03:11:13.161568   749 layer_factory.hpp:74] Creating layer relu3_3
I0212 03:11:13.161574   749 net.cpp:90] Creating Layer relu3_3
I0212 03:11:13.161577   749 net.cpp:410] relu3_3 <- conv3_3
I0212 03:11:13.161581   749 net.cpp:357] relu3_3 -> conv3_3 (in-place)
I0212 03:11:13.161584   749 net.cpp:120] Setting up relu3_3
I0212 03:11:13.161626   749 net.cpp:127] Top shape: 1 256 25 25 (160000)
I0212 03:11:13.161630   749 layer_factory.hpp:74] Creating layer pool3
I0212 03:11:13.161635   749 net.cpp:90] Creating Layer pool3
I0212 03:11:13.161638   749 net.cpp:410] pool3 <- conv3_3
I0212 03:11:13.161641   749 net.cpp:368] pool3 -> pool3
I0212 03:11:13.161645   749 net.cpp:120] Setting up pool3
I0212 03:11:13.161764   749 net.cpp:127] Top shape: 1 256 13 13 (43264)
I0212 03:11:13.161772   749 layer_factory.hpp:74] Creating layer conv4_1
I0212 03:11:13.161777   749 net.cpp:90] Creating Layer conv4_1
I0212 03:11:13.161780   749 net.cpp:410] conv4_1 <- pool3
I0212 03:11:13.161784   749 net.cpp:368] conv4_1 -> conv4_1
I0212 03:11:13.161789   749 net.cpp:120] Setting up conv4_1
I0212 03:11:13.163171   749 net.cpp:127] Top shape: 1 512 13 13 (86528)
I0212 03:11:13.163182   749 layer_factory.hpp:74] Creating layer relu4_1
I0212 03:11:13.163188   749 net.cpp:90] Creating Layer relu4_1
I0212 03:11:13.163192   749 net.cpp:410] relu4_1 <- conv4_1
I0212 03:11:13.163195   749 net.cpp:357] relu4_1 -> conv4_1 (in-place)
I0212 03:11:13.163199   749 net.cpp:120] Setting up relu4_1
I0212 03:11:13.163241   749 net.cpp:127] Top shape: 1 512 13 13 (86528)
I0212 03:11:13.163245   749 layer_factory.hpp:74] Creating layer conv4_2
I0212 03:11:13.163250   749 net.cpp:90] Creating Layer conv4_2
I0212 03:11:13.163252   749 net.cpp:410] conv4_2 <- conv4_1
I0212 03:11:13.163255   749 net.cpp:368] conv4_2 -> conv4_2
I0212 03:11:13.163261   749 net.cpp:120] Setting up conv4_2
I0212 03:11:13.165644   749 net.cpp:127] Top shape: 1 512 13 13 (86528)
I0212 03:11:13.165673   749 layer_factory.hpp:74] Creating layer relu4_2
I0212 03:11:13.165680   749 net.cpp:90] Creating Layer relu4_2
I0212 03:11:13.165684   749 net.cpp:410] relu4_2 <- conv4_2
I0212 03:11:13.165690   749 net.cpp:357] relu4_2 -> conv4_2 (in-place)
I0212 03:11:13.165695   749 net.cpp:120] Setting up relu4_2
I0212 03:11:13.165735   749 net.cpp:127] Top shape: 1 512 13 13 (86528)
I0212 03:11:13.165740   749 layer_factory.hpp:74] Creating layer conv4_3
I0212 03:11:13.165745   749 net.cpp:90] Creating Layer conv4_3
I0212 03:11:13.165748   749 net.cpp:410] conv4_3 <- conv4_2
I0212 03:11:13.165751   749 net.cpp:368] conv4_3 -> conv4_3
I0212 03:11:13.165756   749 net.cpp:120] Setting up conv4_3
I0212 03:11:13.197700   749 net.cpp:127] Top shape: 1 512 13 13 (86528)
I0212 03:11:13.197726   749 layer_factory.hpp:74] Creating layer relu4_3
I0212 03:11:13.197736   749 net.cpp:90] Creating Layer relu4_3
I0212 03:11:13.197739   749 net.cpp:410] relu4_3 <- conv4_3
I0212 03:11:13.197744   749 net.cpp:357] relu4_3 -> conv4_3 (in-place)
I0212 03:11:13.197751   749 net.cpp:120] Setting up relu4_3
I0212 03:11:13.197983   749 net.cpp:127] Top shape: 1 512 13 13 (86528)
I0212 03:11:13.197989   749 layer_factory.hpp:74] Creating layer pool4
I0212 03:11:13.198005   749 net.cpp:90] Creating Layer pool4
I0212 03:11:13.198009   749 net.cpp:410] pool4 <- conv4_3
I0212 03:11:13.198012   749 net.cpp:368] pool4 -> pool4
I0212 03:11:13.198017   749 net.cpp:120] Setting up pool4
I0212 03:11:13.198112   749 net.cpp:127] Top shape: 1 512 7 7 (25088)
I0212 03:11:13.198117   749 layer_factory.hpp:74] Creating layer conv5_1
I0212 03:11:13.198134   749 net.cpp:90] Creating Layer conv5_1
I0212 03:11:13.198137   749 net.cpp:410] conv5_1 <- pool4
I0212 03:11:13.198140   749 net.cpp:368] conv5_1 -> conv5_1
I0212 03:11:13.198144   749 net.cpp:120] Setting up conv5_1
I0212 03:11:13.202095   749 net.cpp:127] Top shape: 1 512 7 7 (25088)
I0212 03:11:13.202122   749 layer_factory.hpp:74] Creating layer relu5_1
I0212 03:11:13.202131   749 net.cpp:90] Creating Layer relu5_1
I0212 03:11:13.202147   749 net.cpp:410] relu5_1 <- conv5_1
I0212 03:11:13.202163   749 net.cpp:357] relu5_1 -> conv5_1 (in-place)
I0212 03:11:13.202169   749 net.cpp:120] Setting up relu5_1
I0212 03:11:13.202241   749 net.cpp:127] Top shape: 1 512 7 7 (25088)
I0212 03:11:13.202244   749 layer_factory.hpp:74] Creating layer conv5_2
I0212 03:11:13.202260   749 net.cpp:90] Creating Layer conv5_2
I0212 03:11:13.202263   749 net.cpp:410] conv5_2 <- conv5_1
I0212 03:11:13.202276   749 net.cpp:368] conv5_2 -> conv5_2
I0212 03:11:13.202282   749 net.cpp:120] Setting up conv5_2
I0212 03:11:13.207979   749 net.cpp:127] Top shape: 1 512 7 7 (25088)
I0212 03:11:13.208004   749 layer_factory.hpp:74] Creating layer relu5_2
I0212 03:11:13.208014   749 net.cpp:90] Creating Layer relu5_2
I0212 03:11:13.208017   749 net.cpp:410] relu5_2 <- conv5_2
I0212 03:11:13.208024   749 net.cpp:357] relu5_2 -> conv5_2 (in-place)
I0212 03:11:13.208029   749 net.cpp:120] Setting up relu5_2
I0212 03:11:13.208112   749 net.cpp:127] Top shape: 1 512 7 7 (25088)
I0212 03:11:13.208117   749 layer_factory.hpp:74] Creating layer conv5_3
I0212 03:11:13.208123   749 net.cpp:90] Creating Layer conv5_3
I0212 03:11:13.208135   749 net.cpp:410] conv5_3 <- conv5_2
I0212 03:11:13.208139   749 net.cpp:368] conv5_3 -> conv5_3
I0212 03:11:13.208154   749 net.cpp:120] Setting up conv5_3
I0212 03:11:13.215756   749 net.cpp:127] Top shape: 1 512 7 7 (25088)
I0212 03:11:13.215781   749 layer_factory.hpp:74] Creating layer relu5_3
I0212 03:11:13.215790   749 net.cpp:90] Creating Layer relu5_3
I0212 03:11:13.215795   749 net.cpp:410] relu5_3 <- conv5_3
I0212 03:11:13.215811   749 net.cpp:357] relu5_3 -> conv5_3 (in-place)
I0212 03:11:13.215816   749 net.cpp:120] Setting up relu5_3
I0212 03:11:13.215986   749 net.cpp:127] Top shape: 1 512 7 7 (25088)
I0212 03:11:13.215992   749 layer_factory.hpp:74] Creating layer roi_pool5
I0212 03:11:13.216009   749 net.cpp:90] Creating Layer roi_pool5
I0212 03:11:13.216012   749 net.cpp:410] roi_pool5 <- conv5_3
I0212 03:11:13.216015   749 net.cpp:410] roi_pool5 <- rois
I0212 03:11:13.216020   749 net.cpp:368] roi_pool5 -> pool5
I0212 03:11:13.216025   749 net.cpp:120] Setting up roi_pool5
I0212 03:11:13.216037   749 roi_pooling_layer.cpp:30] Spatial scale: 0.0625
I0212 03:11:13.216048   749 net.cpp:127] Top shape: 1 512 7 7 (25088)
I0212 03:11:13.216050   749 layer_factory.hpp:74] Creating layer fc6
I0212 03:11:13.216068   749 net.cpp:90] Creating Layer fc6
I0212 03:11:13.216070   749 net.cpp:410] fc6 <- pool5
I0212 03:11:13.216085   749 net.cpp:368] fc6 -> fc6
I0212 03:11:13.216090   749 net.cpp:120] Setting up fc6
I0212 03:11:13.456876   749 net.cpp:127] Top shape: 1 4096 (4096)
I0212 03:11:13.456902   749 layer_factory.hpp:74] Creating layer relu6
I0212 03:11:13.456912   749 net.cpp:90] Creating Layer relu6
I0212 03:11:13.456917   749 net.cpp:410] relu6 <- fc6
I0212 03:11:13.456923   749 net.cpp:357] relu6 -> fc6 (in-place)
I0212 03:11:13.456928   749 net.cpp:120] Setting up relu6
I0212 03:11:13.457074   749 net.cpp:127] Top shape: 1 4096 (4096)
I0212 03:11:13.457079   749 layer_factory.hpp:74] Creating layer drop6
I0212 03:11:13.457094   749 net.cpp:90] Creating Layer drop6
I0212 03:11:13.457096   749 net.cpp:410] drop6 <- fc6
I0212 03:11:13.457100   749 net.cpp:357] drop6 -> fc6 (in-place)
I0212 03:11:13.457104   749 net.cpp:120] Setting up drop6
I0212 03:11:13.457109   749 net.cpp:127] Top shape: 1 4096 (4096)
I0212 03:11:13.457123   749 layer_factory.hpp:74] Creating layer fc7
I0212 03:11:13.457129   749 net.cpp:90] Creating Layer fc7
I0212 03:11:13.457130   749 net.cpp:410] fc7 <- fc6
I0212 03:11:13.457134   749 net.cpp:368] fc7 -> fc7
I0212 03:11:13.457139   749 net.cpp:120] Setting up fc7
I0212 03:11:13.491893   749 net.cpp:127] Top shape: 1 4096 (4096)
I0212 03:11:13.491921   749 layer_factory.hpp:74] Creating layer relu7
I0212 03:11:13.491930   749 net.cpp:90] Creating Layer relu7
I0212 03:11:13.491935   749 net.cpp:410] relu7 <- fc7
I0212 03:11:13.491940   749 net.cpp:357] relu7 -> fc7 (in-place)
I0212 03:11:13.491946   749 net.cpp:120] Setting up relu7
I0212 03:11:13.492079   749 net.cpp:127] Top shape: 1 4096 (4096)
I0212 03:11:13.492082   749 layer_factory.hpp:74] Creating layer drop7
I0212 03:11:13.492096   749 net.cpp:90] Creating Layer drop7
I0212 03:11:13.492099   749 net.cpp:410] drop7 <- fc7
I0212 03:11:13.492102   749 net.cpp:357] drop7 -> fc7 (in-place)
I0212 03:11:13.492120   749 net.cpp:120] Setting up drop7
I0212 03:11:13.492123   749 net.cpp:127] Top shape: 1 4096 (4096)
I0212 03:11:13.492135   749 layer_factory.hpp:74] Creating layer fc7_drop7_0_split
I0212 03:11:13.492154   749 net.cpp:90] Creating Layer fc7_drop7_0_split
I0212 03:11:13.492156   749 net.cpp:410] fc7_drop7_0_split <- fc7
I0212 03:11:13.492161   749 net.cpp:368] fc7_drop7_0_split -> fc7_drop7_0_split_0
I0212 03:11:13.492175   749 net.cpp:368] fc7_drop7_0_split -> fc7_drop7_0_split_1
I0212 03:11:13.492192   749 net.cpp:120] Setting up fc7_drop7_0_split
I0212 03:11:13.492195   749 net.cpp:127] Top shape: 1 4096 (4096)
I0212 03:11:13.492198   749 net.cpp:127] Top shape: 1 4096 (4096)
I0212 03:11:13.492210   749 layer_factory.hpp:74] Creating layer cls_score
I0212 03:11:13.492216   749 net.cpp:90] Creating Layer cls_score
I0212 03:11:13.492218   749 net.cpp:410] cls_score <- fc7_drop7_0_split_0
I0212 03:11:13.492224   749 net.cpp:368] cls_score -> cls_score
I0212 03:11:13.492239   749 net.cpp:120] Setting up cls_score
I0212 03:11:13.494272   749 net.cpp:127] Top shape: 1 21 (21)
I0212 03:11:13.494279   749 layer_factory.hpp:74] Creating layer bbox_pred
I0212 03:11:13.494287   749 net.cpp:90] Creating Layer bbox_pred
I0212 03:11:13.494300   749 net.cpp:410] bbox_pred <- fc7_drop7_0_split_1
I0212 03:11:13.494304   749 net.cpp:368] bbox_pred -> bbox_pred
I0212 03:11:13.494308   749 net.cpp:120] Setting up bbox_pred
I0212 03:11:13.502118   749 net.cpp:127] Top shape: 1 84 (84)
I0212 03:11:13.502142   749 layer_factory.hpp:74] Creating layer loss_cls
I0212 03:11:13.502148   749 net.cpp:90] Creating Layer loss_cls
I0212 03:11:13.502151   749 net.cpp:410] loss_cls <- cls_score
I0212 03:11:13.502166   749 net.cpp:410] loss_cls <- labels
I0212 03:11:13.502171   749 net.cpp:368] loss_cls -> loss_cls
I0212 03:11:13.502174   749 net.cpp:120] Setting up loss_cls
I0212 03:11:13.502187   749 layer_factory.hpp:74] Creating layer loss_cls
…
