…
snapshot: 0
snapshot_prefix: "vgg16_rpn"
average_loss: 100
I0208 19:17:31.724566 13338 solver.cpp:66] Creating training net from train_net file: models/VGG16/rpn/train.prototxt
I0208 19:17:31.741415 13338 net.cpp:42] Initializing net from parameters: 
name: "VGG_RPN"
state {
  phase: TRAIN
}
layer {
  name: "data"
  type: "Python"
  top: "data"
  top: "labels"
  top: "bbox_targets"
  top: "bbox_loss_weights"
  top: "batch_size"
  python_param {
    module: "roi_data_layer.layer"
    layer: "RoIDataLayer"
    param_str: "num_classes: 1\nRPN: True"
  }
}
layer {
  name: "conv1_1"
  type: "Convolution"
  bottom: "data"
  top: "conv1_1"
  param {
    lr_mult: 0
    decay_mult: 0
  }
  param {
    lr_mult: 0
    decay_mult: 0
  }
  convolution_param {
    num_output: 64
    pad: 1
    kernel_size: 3
  }
}
layer {
  name: "relu1_1"
  type: "ReLU"
  bottom: "conv1_1"
  top: "conv1_1"
}
layer {
  name: "conv1_2"
  type: "Convolution"
  bottom: "conv1_1"
  top: "conv1_2"
  param {
    lr_mult: 0
    decay_mult: 0
  }
  param {
    lr_mult: 0
    decay_mult: 0
  }
  convolution_param {
    num_output: 64
    pad: 1
    kernel_size: 3
  }
}
layer {
  name: "relu1_2"
  type: "ReLU"
  bottom: "conv1_2"
  top: "conv1_2"
}
layer {
  name: "pool1"
  type: "Pooling"
  bottom: "conv1_2"
  top: "pool1"
  pooling_param {
    pool: MAX
    kernel_size: 2
    stride: 2
  }
}
layer {
  name: "conv2_1"
  type: "Convolution"
  bottom: "pool1"
  top: "conv2_1"
  param {
    lr_mult: 0
    decay_mult: 0
  }
  param {
    lr_mult: 0
    decay_mult: 0
  }
  convolution_param {
    num_output: 128
    pad: 1
    kernel_size: 3
  }
}
layer {
  name: "relu2_1"
  type: "ReLU"
  bottom: "conv2_1"
  top: "conv2_1"
}
layer {
  name: "conv2_2"
  type: "Convolution"
  bottom: "conv2_1"
  top: "conv2_2"
  param {
    lr_mult: 0
    decay_mult: 0
  }
  param {
    lr_mult: 0
    decay_mult: 0
  }
  convolution_param {
    num_output: 128
    pad: 1
    kernel_size: 3
  }
}
layer {
  name: "relu2_2"
  type: "ReLU"
  bottom: "conv2_2"
  top: "conv2_2"
}
layer {
  name: "pool2"
  type: "Pooling"
  bottom: "conv2_2"
  top: "pool2"
  pooling_param {
    pool: MAX
    kernel_size: 2
    stride: 2
  }
}
layer {
  name: "conv3_1"
  type: "Convolution"
  bottom: "pool2"
  top: "conv3_1"
  param {
    lr_mult: 1
    decay_mult: 1
  }
  param {
    lr_mult: 2
    decay_mult: 0
  }
  convolution_param {
    num_output: 256
    pad: 1
    kernel_size: 3
  }
}
layer {
  name: "relu3_1"
  type: "ReLU"
  bottom: "conv3_1"
  top: "conv3_1"
}
layer {
  name: "conv3_2"
  type: "Convolution"
  bottom: "conv3_1"
  top: "conv3_2"
  param {
    lr_mult: 1
    decay_mult: 1
  }
  param {
    lr_mult: 2
    decay_mult: 0
  }
  convolution_param {
    num_output: 256
    pad: 1
    kernel_size: 3
  }
}
layer {
  name: "relu3_2"
  type: "ReLU"
  bottom: "conv3_2"
  top: "conv3_2"
}
layer {
  name: "conv3_3"
  type: "Convolution"
  bottom: "conv3_2"
  top: "conv3_3"
  param {
    lr_mult: 1
    decay_mult: 1
  }
  param {
    lr_mult: 2
    decay_mult: 0
  }
  convolution_param {
    num_output: 256
    pad: 1
    kernel_size: 3
  }
}
layer {
  name: "relu3_3"
  type: "ReLU"
  bottom: "conv3_3"
  top: "conv3_3"
}
layer {
  name: "pool3"
  type: "Pooling"
  bottom: "conv3_3"
  top: "pool3"
  pooling_param {
    pool: MAX
    kernel_size: 2
    stride: 2
  }
}
layer {
  name: "conv4_1"
  type: "Convolution"
  bottom: "pool3"
  top: "conv4_1"
  param {
    lr_mult: 1
    decay_mult: 1
  }
  param {
    lr_mult: 2
    decay_mult: 0
  }
  convolution_param {
    num_output: 512
    pad: 1
    kernel_size: 3
  }
}
layer {
  name: "relu4_1"
  type: "ReLU"
  bottom: "conv4_1"
  top: "conv4_1"
}
layer {
  name: "conv4_2"
  type: "Convolution"
  bottom: "conv4_1"
  top: "conv4_2"
  param {
    lr_mult: 1
    decay_mult: 1
  }
  param {
    lr_mult: 2
    decay_mult: 0
  }
  convolution_param {
    num_output: 512
    pad: 1
    kernel_size: 3
  }
}
layer {
  name: "relu4_2"
  type: "ReLU"
  bottom: "conv4_2"
  top: "conv4_2"
}
layer {
  name: "conv4_3"
  type: "Convolution"
  bottom: "conv4_2"
  top: "conv4_3"
  param {
    lr_mult: 1
    decay_mult: 1
  }
  param {
    lr_mult: 2
    decay_mult: 0
  }
  convolution_param {
    num_output: 512
    pad: 1
    kernel_size: 3
  }
}
layer {
  name: "relu4_3"
  type: "ReLU"
  bottom: "conv4_3"
  top: "conv4_3"
}
layer {
  name: "pool4"
  type: "Pooling"
  bottom: "conv4_3"
  top: "pool4"
  pooling_param {
    pool: MAX
    kernel_size: 2
    stride: 2
  }
}
layer {
  name: "conv5_1"
  type: "Convolution"
  bottom: "pool4"
  top: "conv5_1"
  param {
    lr_mult: 1
    decay_mult: 1
  }
  param {
    lr_mult: 2
    decay_mult: 0
  }
  convolution_param {
    num_output: 512
    pad: 1
    kernel_size: 3
  }
}
layer {
  name: "relu5_1"
  type: "ReLU"
  bottom: "conv5_1"
  top: "conv5_1"
}
layer {
  name: "conv5_2"
  type: "Convolution"
  bottom: "conv5_1"
  top: "conv5_2"
  param {
    lr_mult: 1
    decay_mult: 1
  }
  param {
    lr_mult: 2
    decay_mult: 0
  }
  convolution_param {
    num_output: 512
    pad: 1
    kernel_size: 3
  }
}
layer {
  name: "relu5_2"
  type: "ReLU"
  bottom: "conv5_2"
  top: "conv5_2"
}
layer {
  name: "conv5_3"
  type: "Convolution"
  bottom: "conv5_2"
  top: "conv5_3"
  param {
    lr_mult: 1
    decay_mult: 1
  }
  param {
    lr_mult: 2
    decay_mult: 0
  }
  convolution_param {
    num_output: 512
    pad: 1
    kernel_size: 3
  }
}
layer {
  name: "relu5_3"
  type: "ReLU"
  bottom: "conv5_3"
  top: "conv5_3"
}
layer {
  name: "conv_rpn_feature"
  type: "Convolution"
  bottom: "conv5_3"
  top: "conv_rpn_feature"
  param {
    lr_mult: 1
    decay_mult: 1
  }
  param {
    lr_mult: 2
    decay_mult: 0
  }
  convolution_param {
    num_output: 512
    pad: 1
    kernel_size: 3
    weight_filler {
      type: "gaussian"
      std: 0.01
    }
  }
}
layer {
  name: "relu_rpn_feature"
  type: "ReLU"
  bottom: "conv_rpn_feature"
  top: "conv_rpn_feature"
}
layer {
  name: "conv_rpn_score"
  type: "Convolution"
  bottom: "conv_rpn_feature"
  top: "conv_rpn_score"
  param {
    lr_mult: 1
    decay_mult: 1
  }
  param {
    lr_mult: 2
    decay_mult: 0
  }
  convolution_param {
    num_output: 18
    kernel_size: 1
    weight_filler {
      type: "gaussian"
      std: 0.01
    }
  }
}
layer {
  name: "bbox_pred_rpn"
  type: "Convolution"
  bottom: "conv_rpn_feature"
  top: "bbox_pred_rpn"
  param {
    lr_mult: 1
    decay_mult: 1
  }
  param {
    lr_mult: 2
    decay_mult: 0
  }
  convolution_param {
    num_output: 36
    kernel_size: 1
    weight_filler {
      type: "gaussian"
      std: 0.01
    }
  }
}
layer {
  name: "conv_rpn_score_reshape"
  type: "Reshape"
  bottom: "conv_rpn_score"
  top: "conv_rpn_score_reshape"
  reshape_param {
    shape {
      dim: 1
      dim: 9
      dim: 2
      dim: 5
      dim: 5
    }
  }
}
layer {
  name: "loss_cls"
  type: "SoftmaxWithLoss"
  bottom: "conv_rpn_score_reshape"
  bottom: "labels"
  top: "loss_cls"
  loss_weight: 1
  loss_param {
    ignore_label: -1
  }
  softmax_param {
    axis: 2
  }
}
layer {
  name: "loss_bbox"
  type: "SmoothL1Loss"
  bottom: "bbox_pred_rpn"
  bottom: "bbox_targets"
  bottom: "bbox_loss_weights"
  bottom: "batch_size"
  bottom: "labels"
  top: "loss_bbox"
  loss_weight: 10
}
I0208 19:17:31.741575 13338 layer_factory.hpp:74] Creating layer data
I0208 19:17:31.763214 13338 net.cpp:90] Creating Layer data
I0208 19:17:31.763227 13338 net.cpp:368] data -> data
I0208 19:17:31.763248 13338 net.cpp:368] data -> labels
I0208 19:17:31.763258 13338 net.cpp:368] data -> bbox_targets
I0208 19:17:31.763276 13338 net.cpp:368] data -> bbox_loss_weights
I0208 19:17:31.763293 13338 net.cpp:368] data -> batch_size
I0208 19:17:31.763298 13338 net.cpp:120] Setting up data
I0208 19:17:31.763717 13338 net.cpp:127] Top shape: 1 3 100 100 (30000)
I0208 19:17:31.763727 13338 net.cpp:127] Top shape: 1 9 7 7 (441)
I0208 19:17:31.763732 13338 net.cpp:127] Top shape: 1 36 7 7 (1764)
I0208 19:17:31.763737 13338 net.cpp:127] Top shape: 1 36 7 7 (1764)
I0208 19:17:31.763742 13338 net.cpp:127] Top shape: 1 (1)
I0208 19:17:31.763748 13338 layer_factory.hpp:74] Creating layer labels_data_1_split
I0208 19:17:31.763759 13338 net.cpp:90] Creating Layer labels_data_1_split
I0208 19:17:31.763764 13338 net.cpp:410] labels_data_1_split <- labels
I0208 19:17:31.763772 13338 net.cpp:368] labels_data_1_split -> labels_data_1_split_0
I0208 19:17:31.763777 13338 net.cpp:368] labels_data_1_split -> labels_data_1_split_1
I0208 19:17:31.763782 13338 net.cpp:120] Setting up labels_data_1_split
I0208 19:17:31.763792 13338 net.cpp:127] Top shape: 1 9 7 7 (441)
I0208 19:17:31.763797 13338 net.cpp:127] Top shape: 1 9 7 7 (441)
I0208 19:17:31.763803 13338 layer_factory.hpp:74] Creating layer conv1_1
I0208 19:17:31.763813 13338 net.cpp:90] Creating Layer conv1_1
I0208 19:17:31.763818 13338 net.cpp:410] conv1_1 <- data
I0208 19:17:31.763825 13338 net.cpp:368] conv1_1 -> conv1_1
I0208 19:17:31.763833 13338 net.cpp:120] Setting up conv1_1
I0208 19:17:31.838804 13338 net.cpp:127] Top shape: 1 64 100 100 (640000)
I0208 19:17:31.838830 13338 layer_factory.hpp:74] Creating layer relu1_1
I0208 19:17:31.838840 13338 net.cpp:90] Creating Layer relu1_1
I0208 19:17:31.838845 13338 net.cpp:410] relu1_1 <- conv1_1
I0208 19:17:31.838860 13338 net.cpp:357] relu1_1 -> conv1_1 (in-place)
I0208 19:17:31.838866 13338 net.cpp:120] Setting up relu1_1
I0208 19:17:31.838944 13338 net.cpp:127] Top shape: 1 64 100 100 (640000)
I0208 19:17:31.838948 13338 layer_factory.hpp:74] Creating layer conv1_2
I0208 19:17:31.838965 13338 net.cpp:90] Creating Layer conv1_2
I0208 19:17:31.838968 13338 net.cpp:410] conv1_2 <- conv1_1
I0208 19:17:31.838984 13338 net.cpp:368] conv1_2 -> conv1_2
I0208 19:17:31.838990 13338 net.cpp:120] Setting up conv1_2
I0208 19:17:31.839268 13338 net.cpp:127] Top shape: 1 64 100 100 (640000)
I0208 19:17:31.839278 13338 layer_factory.hpp:74] Creating layer relu1_2
I0208 19:17:31.839282 13338 net.cpp:90] Creating Layer relu1_2
I0208 19:17:31.839285 13338 net.cpp:410] relu1_2 <- conv1_2
I0208 19:17:31.839289 13338 net.cpp:357] relu1_2 -> conv1_2 (in-place)
I0208 19:17:31.839293 13338 net.cpp:120] Setting up relu1_2
I0208 19:17:31.839454 13338 net.cpp:127] Top shape: 1 64 100 100 (640000)
I0208 19:17:31.839460 13338 layer_factory.hpp:74] Creating layer pool1
I0208 19:17:31.839467 13338 net.cpp:90] Creating Layer pool1
I0208 19:17:31.839468 13338 net.cpp:410] pool1 <- conv1_2
I0208 19:17:31.839473 13338 net.cpp:368] pool1 -> pool1
I0208 19:17:31.839478 13338 net.cpp:120] Setting up pool1
I0208 19:17:31.839520 13338 net.cpp:127] Top shape: 1 64 50 50 (160000)
I0208 19:17:31.839524 13338 layer_factory.hpp:74] Creating layer conv2_1
I0208 19:17:31.839529 13338 net.cpp:90] Creating Layer conv2_1
I0208 19:17:31.839531 13338 net.cpp:410] conv2_1 <- pool1
I0208 19:17:31.839535 13338 net.cpp:368] conv2_1 -> conv2_1
I0208 19:17:31.839540 13338 net.cpp:120] Setting up conv2_1
I0208 19:17:31.839776 13338 net.cpp:127] Top shape: 1 128 50 50 (320000)
I0208 19:17:31.839786 13338 layer_factory.hpp:74] Creating layer relu2_1
I0208 19:17:31.839792 13338 net.cpp:90] Creating Layer relu2_1
I0208 19:17:31.839793 13338 net.cpp:410] relu2_1 <- conv2_1
I0208 19:17:31.839797 13338 net.cpp:357] relu2_1 -> conv2_1 (in-place)
I0208 19:17:31.839802 13338 net.cpp:120] Setting up relu2_1
I0208 19:17:31.839843 13338 net.cpp:127] Top shape: 1 128 50 50 (320000)
I0208 19:17:31.839846 13338 layer_factory.hpp:74] Creating layer conv2_2
I0208 19:17:31.839853 13338 net.cpp:90] Creating Layer conv2_2
I0208 19:17:31.839854 13338 net.cpp:410] conv2_2 <- conv2_1
I0208 19:17:31.839859 13338 net.cpp:368] conv2_2 -> conv2_2
I0208 19:17:31.839862 13338 net.cpp:120] Setting up conv2_2
I0208 19:17:31.840234 13338 net.cpp:127] Top shape: 1 128 50 50 (320000)
I0208 19:17:31.840242 13338 layer_factory.hpp:74] Creating layer relu2_2
I0208 19:17:31.840247 13338 net.cpp:90] Creating Layer relu2_2
I0208 19:17:31.840250 13338 net.cpp:410] relu2_2 <- conv2_2
I0208 19:17:31.840255 13338 net.cpp:357] relu2_2 -> conv2_2 (in-place)
I0208 19:17:31.840258 13338 net.cpp:120] Setting up relu2_2
I0208 19:17:31.840297 13338 net.cpp:127] Top shape: 1 128 50 50 (320000)
I0208 19:17:31.840301 13338 layer_factory.hpp:74] Creating layer pool2
I0208 19:17:31.840306 13338 net.cpp:90] Creating Layer pool2
I0208 19:17:31.840308 13338 net.cpp:410] pool2 <- conv2_2
I0208 19:17:31.840312 13338 net.cpp:368] pool2 -> pool2
I0208 19:17:31.840315 13338 net.cpp:120] Setting up pool2
I0208 19:17:31.840431 13338 net.cpp:127] Top shape: 1 128 25 25 (80000)
I0208 19:17:31.840438 13338 layer_factory.hpp:74] Creating layer conv3_1
I0208 19:17:31.840443 13338 net.cpp:90] Creating Layer conv3_1
I0208 19:17:31.840446 13338 net.cpp:410] conv3_1 <- pool2
I0208 19:17:31.840451 13338 net.cpp:368] conv3_1 -> conv3_1
I0208 19:17:31.840454 13338 net.cpp:120] Setting up conv3_1
I0208 19:17:31.841009 13338 net.cpp:127] Top shape: 1 256 25 25 (160000)
I0208 19:17:31.841019 13338 layer_factory.hpp:74] Creating layer relu3_1
I0208 19:17:31.841024 13338 net.cpp:90] Creating Layer relu3_1
I0208 19:17:31.841027 13338 net.cpp:410] relu3_1 <- conv3_1
I0208 19:17:31.841030 13338 net.cpp:357] relu3_1 -> conv3_1 (in-place)
I0208 19:17:31.841034 13338 net.cpp:120] Setting up relu3_1
I0208 19:17:31.841074 13338 net.cpp:127] Top shape: 1 256 25 25 (160000)
I0208 19:17:31.841078 13338 layer_factory.hpp:74] Creating layer conv3_2
I0208 19:17:31.841083 13338 net.cpp:90] Creating Layer conv3_2
I0208 19:17:31.841084 13338 net.cpp:410] conv3_2 <- conv3_1
I0208 19:17:31.841089 13338 net.cpp:368] conv3_2 -> conv3_2
I0208 19:17:31.841094 13338 net.cpp:120] Setting up conv3_2
I0208 19:17:31.841948 13338 net.cpp:127] Top shape: 1 256 25 25 (160000)
I0208 19:17:31.841958 13338 layer_factory.hpp:74] Creating layer relu3_2
I0208 19:17:31.841964 13338 net.cpp:90] Creating Layer relu3_2
I0208 19:17:31.841966 13338 net.cpp:410] relu3_2 <- conv3_2
I0208 19:17:31.841969 13338 net.cpp:357] relu3_2 -> conv3_2 (in-place)
I0208 19:17:31.841974 13338 net.cpp:120] Setting up relu3_2
I0208 19:17:31.842013 13338 net.cpp:127] Top shape: 1 256 25 25 (160000)
I0208 19:17:31.842018 13338 layer_factory.hpp:74] Creating layer conv3_3
I0208 19:17:31.842023 13338 net.cpp:90] Creating Layer conv3_3
I0208 19:17:31.842026 13338 net.cpp:410] conv3_3 <- conv3_2
I0208 19:17:31.842031 13338 net.cpp:368] conv3_3 -> conv3_3
I0208 19:17:31.842036 13338 net.cpp:120] Setting up conv3_3
I0208 19:17:31.842910 13338 net.cpp:127] Top shape: 1 256 25 25 (160000)
I0208 19:17:31.842929 13338 layer_factory.hpp:74] Creating layer relu3_3
I0208 19:17:31.842936 13338 net.cpp:90] Creating Layer relu3_3
I0208 19:17:31.842938 13338 net.cpp:410] relu3_3 <- conv3_3
I0208 19:17:31.842942 13338 net.cpp:357] relu3_3 -> conv3_3 (in-place)
I0208 19:17:31.842947 13338 net.cpp:120] Setting up relu3_3
I0208 19:17:31.842986 13338 net.cpp:127] Top shape: 1 256 25 25 (160000)
I0208 19:17:31.842990 13338 layer_factory.hpp:74] Creating layer pool3
I0208 19:17:31.842995 13338 net.cpp:90] Creating Layer pool3
I0208 19:17:31.842998 13338 net.cpp:410] pool3 <- conv3_3
I0208 19:17:31.843003 13338 net.cpp:368] pool3 -> pool3
I0208 19:17:31.843008 13338 net.cpp:120] Setting up pool3
I0208 19:17:31.843123 13338 net.cpp:127] Top shape: 1 256 13 13 (43264)
I0208 19:17:31.843130 13338 layer_factory.hpp:74] Creating layer conv4_1
I0208 19:17:31.843135 13338 net.cpp:90] Creating Layer conv4_1
I0208 19:17:31.843138 13338 net.cpp:410] conv4_1 <- pool3
I0208 19:17:31.843143 13338 net.cpp:368] conv4_1 -> conv4_1
I0208 19:17:31.843147 13338 net.cpp:120] Setting up conv4_1
I0208 19:17:31.844209 13338 net.cpp:127] Top shape: 1 512 13 13 (86528)
I0208 19:17:31.844221 13338 layer_factory.hpp:74] Creating layer relu4_1
I0208 19:17:31.844226 13338 net.cpp:90] Creating Layer relu4_1
I0208 19:17:31.844229 13338 net.cpp:410] relu4_1 <- conv4_1
I0208 19:17:31.844233 13338 net.cpp:357] relu4_1 -> conv4_1 (in-place)
I0208 19:17:31.844236 13338 net.cpp:120] Setting up relu4_1
I0208 19:17:31.844279 13338 net.cpp:127] Top shape: 1 512 13 13 (86528)
I0208 19:17:31.844282 13338 layer_factory.hpp:74] Creating layer conv4_2
I0208 19:17:31.844288 13338 net.cpp:90] Creating Layer conv4_2
I0208 19:17:31.844290 13338 net.cpp:410] conv4_2 <- conv4_1
I0208 19:17:31.844295 13338 net.cpp:368] conv4_2 -> conv4_2
I0208 19:17:31.844298 13338 net.cpp:120] Setting up conv4_2
I0208 19:17:31.846508 13338 net.cpp:127] Top shape: 1 512 13 13 (86528)
I0208 19:17:31.846535 13338 layer_factory.hpp:74] Creating layer relu4_2
I0208 19:17:31.846544 13338 net.cpp:90] Creating Layer relu4_2
I0208 19:17:31.846547 13338 net.cpp:410] relu4_2 <- conv4_2
I0208 19:17:31.846552 13338 net.cpp:357] relu4_2 -> conv4_2 (in-place)
I0208 19:17:31.846559 13338 net.cpp:120] Setting up relu4_2
I0208 19:17:31.846599 13338 net.cpp:127] Top shape: 1 512 13 13 (86528)
I0208 19:17:31.846606 13338 layer_factory.hpp:74] Creating layer conv4_3
I0208 19:17:31.846611 13338 net.cpp:90] Creating Layer conv4_3
I0208 19:17:31.846613 13338 net.cpp:410] conv4_3 <- conv4_2
I0208 19:17:31.846617 13338 net.cpp:368] conv4_3 -> conv4_3
I0208 19:17:31.846621 13338 net.cpp:120] Setting up conv4_3
I0208 19:17:31.849632 13338 net.cpp:127] Top shape: 1 512 13 13 (86528)
I0208 19:17:31.849656 13338 layer_factory.hpp:74] Creating layer relu4_3
I0208 19:17:31.849665 13338 net.cpp:90] Creating Layer relu4_3
I0208 19:17:31.849670 13338 net.cpp:410] relu4_3 <- conv4_3
I0208 19:17:31.849676 13338 net.cpp:357] relu4_3 -> conv4_3 (in-place)
I0208 19:17:31.849683 13338 net.cpp:120] Setting up relu4_3
I0208 19:17:31.849817 13338 net.cpp:127] Top shape: 1 512 13 13 (86528)
I0208 19:17:31.849823 13338 layer_factory.hpp:74] Creating layer pool4
I0208 19:17:31.849829 13338 net.cpp:90] Creating Layer pool4
I0208 19:17:31.849843 13338 net.cpp:410] pool4 <- conv4_3
I0208 19:17:31.849848 13338 net.cpp:368] pool4 -> pool4
I0208 19:17:31.849853 13338 net.cpp:120] Setting up pool4
I0208 19:17:31.849915 13338 net.cpp:127] Top shape: 1 512 7 7 (25088)
I0208 19:17:31.849920 13338 layer_factory.hpp:74] Creating layer conv5_1
I0208 19:17:31.849925 13338 net.cpp:90] Creating Layer conv5_1
I0208 19:17:31.849926 13338 net.cpp:410] conv5_1 <- pool4
I0208 19:17:31.849931 13338 net.cpp:368] conv5_1 -> conv5_1
I0208 19:17:31.849934 13338 net.cpp:120] Setting up conv5_1
I0208 19:17:31.852746 13338 net.cpp:127] Top shape: 1 512 7 7 (25088)
I0208 19:17:31.852780 13338 layer_factory.hpp:74] Creating layer relu5_1
I0208 19:17:31.852795 13338 net.cpp:90] Creating Layer relu5_1
I0208 19:17:31.852813 13338 net.cpp:410] relu5_1 <- conv5_1
I0208 19:17:31.852831 13338 net.cpp:357] relu5_1 -> conv5_1 (in-place)
I0208 19:17:31.852844 13338 net.cpp:120] Setting up relu5_1
I0208 19:17:31.852934 13338 net.cpp:127] Top shape: 1 512 7 7 (25088)
I0208 19:17:31.852941 13338 layer_factory.hpp:74] Creating layer conv5_2
I0208 19:17:31.852951 13338 net.cpp:90] Creating Layer conv5_2
I0208 19:17:31.852963 13338 net.cpp:410] conv5_2 <- conv5_1
I0208 19:17:31.852982 13338 net.cpp:368] conv5_2 -> conv5_2
I0208 19:17:31.852990 13338 net.cpp:120] Setting up conv5_2
I0208 19:17:31.855176 13338 net.cpp:127] Top shape: 1 512 7 7 (25088)
I0208 19:17:31.855203 13338 layer_factory.hpp:74] Creating layer relu5_2
I0208 19:17:31.855211 13338 net.cpp:90] Creating Layer relu5_2
I0208 19:17:31.855216 13338 net.cpp:410] relu5_2 <- conv5_2
I0208 19:17:31.855222 13338 net.cpp:357] relu5_2 -> conv5_2 (in-place)
I0208 19:17:31.855228 13338 net.cpp:120] Setting up relu5_2
I0208 19:17:31.855273 13338 net.cpp:127] Top shape: 1 512 7 7 (25088)
I0208 19:17:31.855275 13338 layer_factory.hpp:74] Creating layer conv5_3
I0208 19:17:31.855283 13338 net.cpp:90] Creating Layer conv5_3
I0208 19:17:31.855285 13338 net.cpp:410] conv5_3 <- conv5_2
I0208 19:17:31.855289 13338 net.cpp:368] conv5_3 -> conv5_3
I0208 19:17:31.855294 13338 net.cpp:120] Setting up conv5_3
I0208 19:17:31.858100 13338 net.cpp:127] Top shape: 1 512 7 7 (25088)
I0208 19:17:31.858125 13338 layer_factory.hpp:74] Creating layer relu5_3
I0208 19:17:31.858134 13338 net.cpp:90] Creating Layer relu5_3
I0208 19:17:31.858139 13338 net.cpp:410] relu5_3 <- conv5_3
I0208 19:17:31.858144 13338 net.cpp:357] relu5_3 -> conv5_3 (in-place)
I0208 19:17:31.858150 13338 net.cpp:120] Setting up relu5_3
I0208 19:17:31.858270 13338 net.cpp:127] Top shape: 1 512 7 7 (25088)
I0208 19:17:31.858286 13338 layer_factory.hpp:74] Creating layer conv_rpn_feature
I0208 19:17:31.858299 13338 net.cpp:90] Creating Layer conv_rpn_feature
I0208 19:17:31.858302 13338 net.cpp:410] conv_rpn_feature <- conv5_3
I0208 19:17:31.858307 13338 net.cpp:368] conv_rpn_feature -> conv_rpn_feature
I0208 19:17:31.858314 13338 net.cpp:120] Setting up conv_rpn_feature
I0208 19:17:31.913656 13338 net.cpp:127] Top shape: 1 512 7 7 (25088)
I0208 19:17:31.913679 13338 layer_factory.hpp:74] Creating layer relu_rpn_feature
I0208 19:17:31.913687 13338 net.cpp:90] Creating Layer relu_rpn_feature
I0208 19:17:31.913691 13338 net.cpp:410] relu_rpn_feature <- conv_rpn_feature
I0208 19:17:31.913697 13338 net.cpp:357] relu_rpn_feature -> conv_rpn_feature (in-place)
I0208 19:17:31.913702 13338 net.cpp:120] Setting up relu_rpn_feature
I0208 19:17:31.913765 13338 net.cpp:127] Top shape: 1 512 7 7 (25088)
I0208 19:17:31.913779 13338 layer_factory.hpp:74] Creating layer conv_rpn_feature_relu_rpn_feature_0_split
I0208 19:17:31.913782 13338 net.cpp:90] Creating Layer conv_rpn_feature_relu_rpn_feature_0_split
I0208 19:17:31.913785 13338 net.cpp:410] conv_rpn_feature_relu_rpn_feature_0_split <- conv_rpn_feature
I0208 19:17:31.913789 13338 net.cpp:368] conv_rpn_feature_relu_rpn_feature_0_split -> conv_rpn_feature_relu_rpn_feature_0_split_0
I0208 19:17:31.913794 13338 net.cpp:368] conv_rpn_feature_relu_rpn_feature_0_split -> conv_rpn_feature_relu_rpn_feature_0_split_1
I0208 19:17:31.913799 13338 net.cpp:120] Setting up conv_rpn_feature_relu_rpn_feature_0_split
I0208 19:17:31.913806 13338 net.cpp:127] Top shape: 1 512 7 7 (25088)
I0208 19:17:31.913810 13338 net.cpp:127] Top shape: 1 512 7 7 (25088)
I0208 19:17:31.913811 13338 layer_factory.hpp:74] Creating layer conv_rpn_score
I0208 19:17:31.913817 13338 net.cpp:90] Creating Layer conv_rpn_score
I0208 19:17:31.913830 13338 net.cpp:410] conv_rpn_score <- conv_rpn_feature_relu_rpn_feature_0_split_0
I0208 19:17:31.913836 13338 net.cpp:368] conv_rpn_score -> conv_rpn_score
I0208 19:17:31.913851 13338 net.cpp:120] Setting up conv_rpn_score
I0208 19:17:31.914316 13338 net.cpp:127] Top shape: 1 18 7 7 (882)
I0208 19:17:31.914336 13338 layer_factory.hpp:74] Creating layer bbox_pred_rpn
I0208 19:17:31.914342 13338 net.cpp:90] Creating Layer bbox_pred_rpn
I0208 19:17:31.914345 13338 net.cpp:410] bbox_pred_rpn <- conv_rpn_feature_relu_rpn_feature_0_split_1
I0208 19:17:31.914350 13338 net.cpp:368] bbox_pred_rpn -> bbox_pred_rpn
I0208 19:17:31.914355 13338 net.cpp:120] Setting up bbox_pred_rpn
I0208 19:17:31.915038 13338 net.cpp:127] Top shape: 1 36 7 7 (1764)
I0208 19:17:31.915058 13338 layer_factory.hpp:74] Creating layer conv_rpn_score_reshape
I0208 19:17:31.915066 13338 net.cpp:90] Creating Layer conv_rpn_score_reshape
I0208 19:17:31.915068 13338 net.cpp:410] conv_rpn_score_reshape <- conv_rpn_score
I0208 19:17:31.915082 13338 net.cpp:368] conv_rpn_score_reshape -> conv_rpn_score_reshape
I0208 19:17:31.915088 13338 net.cpp:120] Setting up conv_rpn_score_reshape
I0208 19:17:31.915099 13338 net.cpp:127] Top shape: 1 9 2 7 7 (882)
I0208 19:17:31.915114 13338 layer_factory.hpp:74] Creating layer loss_cls
I0208 19:17:31.915119 13338 net.cpp:90] Creating Layer loss_cls
I0208 19:17:31.915122 13338 net.cpp:410] loss_cls <- conv_rpn_score_reshape
I0208 19:17:31.915125 13338 net.cpp:410] loss_cls <- labels_data_1_split_0
I0208 19:17:31.915129 13338 net.cpp:368] loss_cls -> loss_cls
I0208 19:17:31.915133 13338 net.cpp:120] Setting up loss_cls
…
